ST Edge AI Core v2.0.0-20049
Created date          : 2025-05-27 19:51:16
Parameters            : generate --model /tmp/stm32ai_service/2870beeb-773e-4d2b-a21a-77c8b1b87c2f/a9ca3530-2c7e-4a15-ad5d-9637eacadc58.tflite --allocate-inputs --allocate-outputs --target stm32 --memory-pool /tmp/stm32ai_service/2870beeb-773e-4d2b-a21a-77c8b1b87c2f/workspace/mempools.json --name network --workspace /tmp/stm32ai_service/2870beeb-773e-4d2b-a21a-77c8b1b87c2f/workspace --output /tmp/stm32ai_service/2870beeb-773e-4d2b-a21a-77c8b1b87c2f/output

Exec/report summary (generate)
------------------------------------------------------------------------------------------------------------------------------------
model file         :   /tmp/stm32ai_service/2870beeb-773e-4d2b-a21a-77c8b1b87c2f/a9ca3530-2c7e-4a15-ad5d-9637eacadc58.tflite        
type               :   tflite                                                                                                       
c_name             :   network                                                                                                      
compression        :   lossless                                                                                                     
options            :   allocate-inputs, allocate-outputs, multi-heaps                                                               
optimization       :   balanced                                                                                                     
target/series      :   stm32                                                                                                        
memory pool        :   /tmp/stm32ai_service/2870beeb-773e-4d2b-a21a-77c8b1b87c2f/workspace/mempools.json                            
workspace dir      :   /tmp/stm32ai_service/2870beeb-773e-4d2b-a21a-77c8b1b87c2f/workspace                                          
output dir         :   /tmp/stm32ai_service/2870beeb-773e-4d2b-a21a-77c8b1b87c2f/output                                             
model_fmt          :   sa/ua per tensor                                                                                             
model_name         :   a9ca35302c7e4a15ad5d9637eacadc58                                                                             
model_hash         :   0x2446873a1f854465c392534d7146a6f6                                                                           
params #           :   594,488 items (675.64 KiB)                                                                                   
------------------------------------------------------------------------------------------------------------------------------------
input 1/1          :   'serving_default_input_10', uint8(1x256x256x3), 192.00 KBytes, QLinear(0.007843138,127,uint8), activations   
output 1/3         :   'conversion_148', f32(1x6825x2), 53.32 KBytes, activations                                                   
output 2/3         :   'conversion_155', f32(1x6825x4), 106.64 KBytes, activations                                                  
output 3/3         :   'conversion_163_const_to_copy', f32(1x6825x4), 106.64 KBytes, activations                                    
outputs (total)    :   0 Bytes                                                                                                      
macc               :   72,501,534                                                                                                   
weights (ro)       :   691,856 B (675.64 KiB) (1 segment) / -1,686,096(-70.9%) vs float model                                       
activations (rw)   :   596,680 B (582.70 KiB) (3 segments) *                                                                        
ram (total)        :   596,680 B (582.70 KiB) = 596,680 + 0 + 0                                                                     
------------------------------------------------------------------------------------------------------------------------------------
(*) 'input'/'output' buffers can be used from the activations buffer
 
 Memory-pools summary (activations/ domain)
 --------------- ---- -------------------------- --------- 
 name            id   used                       buffer#   
 --------------- ---- -------------------------- --------- 
 DTCMRAM         0    18.00 KiB (15.0%)          54        
 AXIRAM          1    304.68 KiB (73.4%)         97        
 SDRAM           2    260.02 KiB (1.3%)          2         
 weights_array   3    675.64 KiB (69185600.0%)   107       
 --------------- ---- -------------------------- --------- 

Model name - a9ca35302c7e4a15ad5d9637eacadc58
------ ------------------------------------------------------- ------------------------ ---------------- ----------- -------------------------- --- -------- ------------------- ---------------------- 
m_id   layer (type,original)                                   oshape                   param/size              macc               connected to   | c_size   c_macc              c_type                 
------ ------------------------------------------------------- ------------------------ ---------------- ----------- -------------------------- --- -------- ------------------- ---------------------- 
0      serving_default_input_10 (Input, )                      [b:1,h:256,w:256,c:3]                                                              |          +393,216(+100.0%)   Conversion_[1]         
       conversion_0 (Conversion, QUANTIZE)                     [b:1,h:256,w:256,c:3]                         393,216   serving_default_input_10   |          -393,216(-100.0%)   
------ ------------------------------------------------------- ------------------------ ---------------- ----------- -------------------------- --- -------- ------------------- ---------------------- 
1      conv2d_1 (Conv2D, CONV_2D)                              [b:1,h:128,w:128,c:8]    224/248            3,538,952               conversion_0   |                              Conv2D_[2]             
       nl_1_nl (Nonlinearity, CONV_2D)                         [b:1,h:128,w:128,c:8]                         131,072                   conv2d_1   |          -131,072(-100.0%)   
------ ------------------------------------------------------- ------------------------ ---------------- ----------- -------------------------- --- -------- ------------------- ---------------------- 
2      conv2d_2 (Conv2D, DEPTHWISE_CONV_2D)                    [b:1,h:128,w:128,c:8]    80/104             1,179,656                    nl_1_nl   |                              Pad_/Conv2D_[3, 4]     
       nl_2_nl (Nonlinearity, DEPTHWISE_CONV_2D)               [b:1,h:128,w:128,c:8]                         131,072                   conv2d_2   |          -131,072(-100.0%)   
------ ------------------------------------------------------- ------------------------ ---------------- ----------- -------------------------- --- -------- ------------------- ---------------------- 
3      conv2d_3 (Conv2D, CONV_2D)                              [b:1,h:128,w:128,c:16]   144/192            2,097,168                    nl_2_nl   |                              Conv2D_[5]             
       nl_3_nl (Nonlinearity, CONV_2D)                         [b:1,h:128,w:128,c:16]                        262,144                   conv2d_3   |          -262,144(-100.0%)   
------ ------------------------------------------------------- ------------------------ ---------------- ----------- -------------------------- --- -------- ------------------- ---------------------- 
4      pad_4 (Pad, PAD)                                        [b:1,h:129,w:129,c:16]                                                   nl_3_nl   |                              Pad_[6]                
------ ------------------------------------------------------- ------------------------ ---------------- ----------- -------------------------- --- -------- ------------------- ---------------------- 
5      conv2d_5 (Conv2D, DEPTHWISE_CONV_2D)                    [b:1,h:64,w:64,c:16]     160/208              589,840                      pad_4   |                              Conv2D_[7]             
       nl_5_nl (Nonlinearity, DEPTHWISE_CONV_2D)               [b:1,h:64,w:64,c:16]                           65,536                   conv2d_5   |          -65,536(-100.0%)    
------ ------------------------------------------------------- ------------------------ ---------------- ----------- -------------------------- --- -------- ------------------- ---------------------- 
6      conv2d_6 (Conv2D, CONV_2D)                              [b:1,h:64,w:64,c:32]     544/640            2,097,184                    nl_5_nl   |                              Conv2D_[8]             
       nl_6_nl (Nonlinearity, CONV_2D)                         [b:1,h:64,w:64,c:32]                          131,072                   conv2d_6   |          -131,072(-100.0%)   
------ ------------------------------------------------------- ------------------------ ---------------- ----------- -------------------------- --- -------- ------------------- ---------------------- 
7      conv2d_7 (Conv2D, DEPTHWISE_CONV_2D)                    [b:1,h:64,w:64,c:32]     320/416            1,179,680                    nl_6_nl   |                              Pad_/Conv2D_[9, 10]    
       nl_7_nl (Nonlinearity, DEPTHWISE_CONV_2D)               [b:1,h:64,w:64,c:32]                          131,072                   conv2d_7   |          -131,072(-100.0%)   
------ ------------------------------------------------------- ------------------------ ---------------- ----------- -------------------------- --- -------- ------------------- ---------------------- 
8      conv2d_8 (Conv2D, CONV_2D)                              [b:1,h:64,w:64,c:32]     1,056/1,152        4,194,336                    nl_7_nl   |                              Conv2D_[11]            
       nl_8_nl (Nonlinearity, CONV_2D)                         [b:1,h:64,w:64,c:32]                          131,072                   conv2d_8   |          -131,072(-100.0%)   
------ ------------------------------------------------------- ------------------------ ---------------- ----------- -------------------------- --- -------- ------------------- ---------------------- 
9      pad_9 (Pad, PAD)                                        [b:1,h:65,w:65,c:32]                                                     nl_8_nl   |                              Pad_[12]               
------ ------------------------------------------------------- ------------------------ ---------------- ----------- -------------------------- --- -------- ------------------- ---------------------- 
10     conv2d_10 (Conv2D, DEPTHWISE_CONV_2D)                   [b:1,h:32,w:32,c:32]     320/416              294,944                      pad_9   |                              Conv2D_[13]            
       nl_10_nl (Nonlinearity, DEPTHWISE_CONV_2D)              [b:1,h:32,w:32,c:32]                           32,768                  conv2d_10   |          -32,768(-100.0%)    
------ ------------------------------------------------------- ------------------------ ---------------- ----------- -------------------------- --- -------- ------------------- ---------------------- 
11     conv2d_11 (Conv2D, CONV_2D)                             [b:1,h:32,w:32,c:64]     2,112/2,304        2,097,216                   nl_10_nl   |                              Conv2D_[14]            
       nl_11_nl (Nonlinearity, CONV_2D)                        [b:1,h:32,w:32,c:64]                           65,536                  conv2d_11   |          -65,536(-100.0%)    
------ ------------------------------------------------------- ------------------------ ---------------- ----------- -------------------------- --- -------- ------------------- ---------------------- 
12     conv2d_12 (Conv2D, DEPTHWISE_CONV_2D)                   [b:1,h:32,w:32,c:64]     640/832              589,888                   nl_11_nl   |                              Pad_/Conv2D_[15, 16]   
       nl_12_nl (Nonlinearity, DEPTHWISE_CONV_2D)              [b:1,h:32,w:32,c:64]                           65,536                  conv2d_12   |          -65,536(-100.0%)    
------ ------------------------------------------------------- ------------------------ ---------------- ----------- -------------------------- --- -------- ------------------- ---------------------- 
13     conv2d_13 (Conv2D, CONV_2D)                             [b:1,h:32,w:32,c:64]     4,160/4,352        4,194,368                   nl_12_nl   |                              Conv2D_[17]            
       nl_13_nl (Nonlinearity, CONV_2D)                        [b:1,h:32,w:32,c:64]                           65,536                  conv2d_13   |          -65,536(-100.0%)    
------ ------------------------------------------------------- ------------------------ ---------------- ----------- -------------------------- --- -------- ------------------- ---------------------- 
14     conv2d_14 (Conv2D, CONV_2D)                             [b:1,h:32,w:32,c:32]     2,080/2,176        2,097,184                   nl_13_nl   |                              Conv2D_[87]            
------ ------------------------------------------------------- ------------------------ ---------------- ----------- -------------------------- --- -------- ------------------- ---------------------- 
15     pad_15 (Pad, PAD)                                       [b:1,h:33,w:33,c:64]                                                    nl_13_nl   |                              Pad_[18]               
------ ------------------------------------------------------- ------------------------ ---------------- ----------- -------------------------- --- -------- ------------------- ---------------------- 
16     conv2d_16 (Conv2D, DEPTHWISE_CONV_2D)                   [b:1,h:16,w:16,c:64]     640/832              147,520                     pad_15   |                              Conv2D_[19]            
       nl_16_nl (Nonlinearity, DEPTHWISE_CONV_2D)              [b:1,h:16,w:16,c:64]                           16,384                  conv2d_16   |          -16,384(-100.0%)    
------ ------------------------------------------------------- ------------------------ ---------------- ----------- -------------------------- --- -------- ------------------- ---------------------- 
17     conv2d_17 (Conv2D, CONV_2D)                             [b:1,h:16,w:16,c:128]    8,320/8,704        2,097,280                   nl_16_nl   |                              Conv2D_[20]            
       nl_17_nl (Nonlinearity, CONV_2D)                        [b:1,h:16,w:16,c:128]                          32,768                  conv2d_17   |          -32,768(-100.0%)    
------ ------------------------------------------------------- ------------------------ ---------------- ----------- -------------------------- --- -------- ------------------- ---------------------- 
18     conv2d_18 (Conv2D, DEPTHWISE_CONV_2D)                   [b:1,h:16,w:16,c:128]    1,280/1,664          295,040                   nl_17_nl   |                              Pad_/Conv2D_[21, 22]   
       nl_18_nl (Nonlinearity, DEPTHWISE_CONV_2D)              [b:1,h:16,w:16,c:128]                          32,768                  conv2d_18   |          -32,768(-100.0%)    
------ ------------------------------------------------------- ------------------------ ---------------- ----------- -------------------------- --- -------- ------------------- ---------------------- 
19     conv2d_19 (Conv2D, CONV_2D)                             [b:1,h:16,w:16,c:128]    16,512/16,896      4,194,432                   nl_18_nl   |                              Conv2D_[23]            
       nl_19_nl (Nonlinearity, CONV_2D)                        [b:1,h:16,w:16,c:128]                          32,768                  conv2d_19   |          -32,768(-100.0%)    
------ ------------------------------------------------------- ------------------------ ---------------- ----------- -------------------------- --- -------- ------------------- ---------------------- 
20     conv2d_20 (Conv2D, DEPTHWISE_CONV_2D)                   [b:1,h:16,w:16,c:128]    1,280/1,664          295,040                   nl_19_nl   |                              Pad_/Conv2D_[24, 25]   
       nl_20_nl (Nonlinearity, DEPTHWISE_CONV_2D)              [b:1,h:16,w:16,c:128]                          32,768                  conv2d_20   |          -32,768(-100.0%)    
------ ------------------------------------------------------- ------------------------ ---------------- ----------- -------------------------- --- -------- ------------------- ---------------------- 
21     conv2d_21 (Conv2D, CONV_2D)                             [b:1,h:16,w:16,c:128]    16,512/16,896      4,194,432                   nl_20_nl   |                              Conv2D_[26]            
       nl_21_nl (Nonlinearity, CONV_2D)                        [b:1,h:16,w:16,c:128]                          32,768                  conv2d_21   |          -32,768(-100.0%)    
------ ------------------------------------------------------- ------------------------ ---------------- ----------- -------------------------- --- -------- ------------------- ---------------------- 
22     conv2d_22 (Conv2D, DEPTHWISE_CONV_2D)                   [b:1,h:16,w:16,c:128]    1,280/1,664          295,040                   nl_21_nl   |                              Pad_/Conv2D_[27, 28]   
       nl_22_nl (Nonlinearity, DEPTHWISE_CONV_2D)              [b:1,h:16,w:16,c:128]                          32,768                  conv2d_22   |          -32,768(-100.0%)    
------ ------------------------------------------------------- ------------------------ ---------------- ----------- -------------------------- --- -------- ------------------- ---------------------- 
23     conv2d_23 (Conv2D, CONV_2D)                             [b:1,h:16,w:16,c:128]    16,512/16,896      4,194,432                   nl_22_nl   |                              Conv2D_[29]            
       nl_23_nl (Nonlinearity, CONV_2D)                        [b:1,h:16,w:16,c:128]                          32,768                  conv2d_23   |          -32,768(-100.0%)    
------ ------------------------------------------------------- ------------------------ ---------------- ----------- -------------------------- --- -------- ------------------- ---------------------- 
24     conv2d_24 (Conv2D, DEPTHWISE_CONV_2D)                   [b:1,h:16,w:16,c:128]    1,280/1,664          295,040                   nl_23_nl   |                              Pad_/Conv2D_[30, 31]   
       nl_24_nl (Nonlinearity, DEPTHWISE_CONV_2D)              [b:1,h:16,w:16,c:128]                          32,768                  conv2d_24   |          -32,768(-100.0%)    
------ ------------------------------------------------------- ------------------------ ---------------- ----------- -------------------------- --- -------- ------------------- ---------------------- 
25     conv2d_25 (Conv2D, CONV_2D)                             [b:1,h:16,w:16,c:128]    16,512/16,896      4,194,432                   nl_24_nl   |                              Conv2D_[32]            
       nl_25_nl (Nonlinearity, CONV_2D)                        [b:1,h:16,w:16,c:128]                          32,768                  conv2d_25   |          -32,768(-100.0%)    
------ ------------------------------------------------------- ------------------------ ---------------- ----------- -------------------------- --- -------- ------------------- ---------------------- 
26     conv2d_26 (Conv2D, DEPTHWISE_CONV_2D)                   [b:1,h:16,w:16,c:128]    1,280/1,664          295,040                   nl_25_nl   |                              Pad_/Conv2D_[33, 34]   
       nl_26_nl (Nonlinearity, DEPTHWISE_CONV_2D)              [b:1,h:16,w:16,c:128]                          32,768                  conv2d_26   |          -32,768(-100.0%)    
------ ------------------------------------------------------- ------------------------ ---------------- ----------- -------------------------- --- -------- ------------------- ---------------------- 
27     conv2d_27 (Conv2D, CONV_2D)                             [b:1,h:16,w:16,c:128]    16,512/16,896      4,194,432                   nl_26_nl   |                              Conv2D_[35]            
       nl_27_nl (Nonlinearity, CONV_2D)                        [b:1,h:16,w:16,c:128]                          32,768                  conv2d_27   |          -32,768(-100.0%)    
------ ------------------------------------------------------- ------------------------ ---------------- ----------- -------------------------- --- -------- ------------------- ---------------------- 
28     conv2d_28 (Conv2D, CONV_2D)                             [b:1,h:16,w:16,c:32]     4,128/4,224        1,048,608                   nl_27_nl   |                              Conv2D_[80]            
------ ------------------------------------------------------- ------------------------ ---------------- ----------- -------------------------- --- -------- ------------------- ---------------------- 
29     pad_29 (Pad, PAD)                                       [b:1,h:17,w:17,c:128]                                                   nl_27_nl   |                              Pad_[36]               
------ ------------------------------------------------------- ------------------------ ---------------- ----------- -------------------------- --- -------- ------------------- ---------------------- 
30     conv2d_30 (Conv2D, DEPTHWISE_CONV_2D)                   [b:1,h:8,w:8,c:128]      1,280/1,664           73,856                     pad_29   |                              Conv2D_[37]            
       nl_30_nl (Nonlinearity, DEPTHWISE_CONV_2D)              [b:1,h:8,w:8,c:128]                             8,192                  conv2d_30   |          -8,192(-100.0%)     
------ ------------------------------------------------------- ------------------------ ---------------- ----------- -------------------------- --- -------- ------------------- ---------------------- 
31     conv2d_31 (Conv2D, CONV_2D)                             [b:1,h:8,w:8,c:256]      33,024/33,792      2,097,408                   nl_30_nl   |                              Conv2D_[38]            
       nl_31_nl (Nonlinearity, CONV_2D)                        [b:1,h:8,w:8,c:256]                            16,384                  conv2d_31   |          -16,384(-100.0%)    
------ ------------------------------------------------------- ------------------------ ---------------- ----------- -------------------------- --- -------- ------------------- ---------------------- 
32     conv2d_32 (Conv2D, DEPTHWISE_CONV_2D)                   [b:1,h:8,w:8,c:256]      2,560/3,328          147,712                   nl_31_nl   |                              Pad_/Conv2D_[39, 40]   
       nl_32_nl (Nonlinearity, DEPTHWISE_CONV_2D)              [b:1,h:8,w:8,c:256]                            16,384                  conv2d_32   |          -16,384(-100.0%)    
------ ------------------------------------------------------- ------------------------ ---------------- ----------- -------------------------- --- -------- ------------------- ---------------------- 
33     conv2d_33 (Conv2D, CONV_2D)                             [b:1,h:8,w:8,c:256]      65,792/66,560      4,194,560                   nl_32_nl   |                              Conv2D_[41]            
       nl_33_nl (Nonlinearity, CONV_2D)                        [b:1,h:8,w:8,c:256]                            16,384                  conv2d_33   |          -16,384(-100.0%)    
------ ------------------------------------------------------- ------------------------ ---------------- ----------- -------------------------- --- -------- ------------------- ---------------------- 
34     conv2d_34 (Conv2D, CONV_2D)                             [b:1,h:8,w:8,c:32]       8,224/8,320          524,320                   nl_33_nl   |                              Conv2D_[73]            
------ ------------------------------------------------------- ------------------------ ---------------- ----------- -------------------------- --- -------- ------------------- ---------------------- 
35     conv2d_35 (Conv2D, DEPTHWISE_CONV_2D)                   [b:1,h:4,w:4,c:256]      2,560/3,328           37,120                   nl_33_nl   |                              Pad_/Conv2D_[42, 43]   
       nl_35_nl (Nonlinearity, DEPTHWISE_CONV_2D)              [b:1,h:4,w:4,c:256]                             4,096                  conv2d_35   |          -4,096(-100.0%)     
------ ------------------------------------------------------- ------------------------ ---------------- ----------- -------------------------- --- -------- ------------------- ---------------------- 
36     conv2d_36 (Conv2D, CONV_2D)                             [b:1,h:4,w:4,c:256]      65,792/66,560      1,048,832                   nl_35_nl   |                              Conv2D_[44]            
       nl_36_nl (Nonlinearity, CONV_2D)                        [b:1,h:4,w:4,c:256]                             4,096                  conv2d_36   |          -4,096(-100.0%)     
------ ------------------------------------------------------- ------------------------ ---------------- ----------- -------------------------- --- -------- ------------------- ---------------------- 
37     conv2d_37 (Conv2D, DEPTHWISE_CONV_2D)                   [b:1,h:4,w:4,c:256]      2,560/3,328           37,120                   nl_36_nl   |                              Pad_/Conv2D_[45, 46]   
       nl_37_nl (Nonlinearity, DEPTHWISE_CONV_2D)              [b:1,h:4,w:4,c:256]                             4,096                  conv2d_37   |          -4,096(-100.0%)     
------ ------------------------------------------------------- ------------------------ ---------------- ----------- -------------------------- --- -------- ------------------- ---------------------- 
38     conv2d_38 (Conv2D, CONV_2D)                             [b:1,h:4,w:4,c:256]      65,792/66,560      1,048,832                   nl_37_nl   |                              Conv2D_[47]            
       nl_38_nl (Nonlinearity, CONV_2D)                        [b:1,h:4,w:4,c:256]                             4,096                  conv2d_38   |          -4,096(-100.0%)     
------ ------------------------------------------------------- ------------------------ ---------------- ----------- -------------------------- --- -------- ------------------- ---------------------- 
39     conv2d_39 (Conv2D, CONV_2D)                             [b:1,h:4,w:4,c:32]       8,224/8,320          131,104                   nl_38_nl   |                              Conv2D_[66]            
------ ------------------------------------------------------- ------------------------ ---------------- ----------- -------------------------- --- -------- ------------------- ---------------------- 
40     conv2d_40 (Conv2D, DEPTHWISE_CONV_2D)                   [b:1,h:2,w:2,c:256]      2,560/3,328            9,472                   nl_38_nl   |                              Pad_/Conv2D_[48, 49]   
       nl_40_nl (Nonlinearity, DEPTHWISE_CONV_2D)              [b:1,h:2,w:2,c:256]                             1,024                  conv2d_40   |          -1,024(-100.0%)     
------ ------------------------------------------------------- ------------------------ ---------------- ----------- -------------------------- --- -------- ------------------- ---------------------- 
41     conv2d_41 (Conv2D, CONV_2D)                             [b:1,h:2,w:2,c:256]      65,792/66,560        262,400                   nl_40_nl   |                              Conv2D_[50]            
       nl_41_nl (Nonlinearity, CONV_2D)                        [b:1,h:2,w:2,c:256]                             1,024                  conv2d_41   |          -1,024(-100.0%)     
------ ------------------------------------------------------- ------------------------ ---------------- ----------- -------------------------- --- -------- ------------------- ---------------------- 
42     conv2d_42 (Conv2D, DEPTHWISE_CONV_2D)                   [b:1,h:2,w:2,c:256]      2,560/3,328            9,472                   nl_41_nl   |                              Pad_/Conv2D_[51, 52]   
       nl_42_nl (Nonlinearity, DEPTHWISE_CONV_2D)              [b:1,h:2,w:2,c:256]                             1,024                  conv2d_42   |          -1,024(-100.0%)     
------ ------------------------------------------------------- ------------------------ ---------------- ----------- -------------------------- --- -------- ------------------- ---------------------- 
43     conv2d_43 (Conv2D, CONV_2D)                             [b:1,h:2,w:2,c:256]      65,792/66,560        262,400                   nl_42_nl   |                              Conv2D_[53]            
       nl_43_nl (Nonlinearity, CONV_2D)                        [b:1,h:2,w:2,c:256]                             1,024                  conv2d_43   |          -1,024(-100.0%)     
------ ------------------------------------------------------- ------------------------ ---------------- ----------- -------------------------- --- -------- ------------------- ---------------------- 
44     conv2d_44 (Conv2D, CONV_2D)                             [b:1,h:2,w:2,c:32]       8,224/8,320           32,800                   nl_43_nl   |                              Conv2D_[59]            
------ ------------------------------------------------------- ------------------------ ---------------- ----------- -------------------------- --- -------- ------------------- ---------------------- 
45     pool_45 (Pool, MEAN)                                    [b:1,h:1,w:1,c:256]                             1,024                   nl_43_nl   |                              Pool_[54]              
       reshape_45_reshape (Reshape, MEAN)                      [b:1,c:256]                                                              pool_45   |                              
------ ------------------------------------------------------- ------------------------ ---------------- ----------- -------------------------- --- -------- ------------------- ---------------------- 
49     reshape_49 (Reshape, RESHAPE)                           [b:1,h:1,w:1,c:256]                                           reshape_45_reshape   |                              
------ ------------------------------------------------------- ------------------------ ---------------- ----------- -------------------------- --- -------- ------------------- ---------------------- 
50     conv2d_50 (Conv2D, CONV_2D)                             [b:1,h:1,w:1,c:32]       8,224/8,320            8,224                 reshape_49   |                              Conv2D_[55]            
------ ------------------------------------------------------- ------------------------ ---------------- ----------- -------------------------- --- -------- ------------------- ---------------------- 
51     conv2d_51 (Conv2D, CONV_2D)                             [b:1,h:1,w:1,c:10]       330/360                  330                  conv2d_50   |                              Conv2D_[58]            
------ ------------------------------------------------------- ------------------------ ---------------- ----------- -------------------------- --- -------- ------------------- ---------------------- 
55     reshape_55 (Reshape, RESHAPE)                           [b:1,h:5,c:2]                                                          conv2d_51   |                              
------ ------------------------------------------------------- ------------------------ ---------------- ----------- -------------------------- --- -------- ------------------- ---------------------- 
56     conv2d_56 (Conv2D, CONV_2D)                             [b:1,h:1,w:1,c:20]       660/720                  660                  conv2d_50   |                              Conv2D_[57]            
------ ------------------------------------------------------- ------------------------ ---------------- ----------- -------------------------- --- -------- ------------------- ---------------------- 
60     reshape_60 (Reshape, RESHAPE)                           [b:1,h:5,c:4]                                                          conv2d_56   |                              
------ ------------------------------------------------------- ------------------------ ---------------- ----------- -------------------------- --- -------- ------------------- ---------------------- 
67     tile_67 (Tile, RESIZE_BILINEAR)                         [b:1,h:2,w:2,c:32]                                                     conv2d_50   |                              Tile_[56]              
------ ------------------------------------------------------- ------------------------ ---------------- ----------- -------------------------- --- -------- ------------------- ---------------------- 
68     eltwise_68 (Eltwise, ADD)                               [b:1,h:2,w:2,c:32]                                128                  conv2d_44   |                              Eltwise/add_[60]       
                                                                                                                                        tile_67   | 
------ ------------------------------------------------------- ------------------------ ---------------- ----------- -------------------------- --- -------- ------------------- ---------------------- 
69     conv2d_69 (Conv2D, CONV_2D)                             [b:1,h:2,w:2,c:10]       2,890/2,920           11,530                 eltwise_68   |                              Pad_/Conv2D_[61, 62]   
------ ------------------------------------------------------- ------------------------ ---------------- ----------- -------------------------- --- -------- ------------------- ---------------------- 
73     reshape_73 (Reshape, RESHAPE)                           [b:1,h:20,c:2]                                                         conv2d_69   |                              
------ ------------------------------------------------------- ------------------------ ---------------- ----------- -------------------------- --- -------- ------------------- ---------------------- 
74     conv2d_74 (Conv2D, CONV_2D)                             [b:1,h:2,w:2,c:20]       5,780/5,840           23,060                 eltwise_68   |                              Pad_/Conv2D_[63, 64]   
------ ------------------------------------------------------- ------------------------ ---------------- ----------- -------------------------- --- -------- ------------------- ---------------------- 
78     reshape_78 (Reshape, RESHAPE)                           [b:1,h:20,c:4]                                                         conv2d_74   |                              
------ ------------------------------------------------------- ------------------------ ---------------- ----------- -------------------------- --- -------- ------------------- ---------------------- 
85     resize_85 (Resize, RESIZE_BILINEAR)                     [b:1,h:4,w:4,c:32]                              2,048                 eltwise_68   |                              Resize_[65]            
------ ------------------------------------------------------- ------------------------ ---------------- ----------- -------------------------- --- -------- ------------------- ---------------------- 
86     eltwise_86 (Eltwise, ADD)                               [b:1,h:4,w:4,c:32]                                512                  conv2d_39   |                              Eltwise/add_[67]       
                                                                                                                                      resize_85   | 
------ ------------------------------------------------------- ------------------------ ---------------- ----------- -------------------------- --- -------- ------------------- ---------------------- 
87     conv2d_87 (Conv2D, CONV_2D)                             [b:1,h:4,w:4,c:10]       2,890/2,920           46,090                 eltwise_86   |                              Pad_/Conv2D_[68, 69]   
------ ------------------------------------------------------- ------------------------ ---------------- ----------- -------------------------- --- -------- ------------------- ---------------------- 
91     reshape_91 (Reshape, RESHAPE)                           [b:1,h:80,c:2]                                                         conv2d_87   |                              
------ ------------------------------------------------------- ------------------------ ---------------- ----------- -------------------------- --- -------- ------------------- ---------------------- 
92     conv2d_92 (Conv2D, CONV_2D)                             [b:1,h:4,w:4,c:20]       5,780/5,840           92,180                 eltwise_86   |                              Pad_/Conv2D_[70, 71]   
------ ------------------------------------------------------- ------------------------ ---------------- ----------- -------------------------- --- -------- ------------------- ---------------------- 
96     reshape_96 (Reshape, RESHAPE)                           [b:1,h:80,c:4]                                                         conv2d_92   |                              
------ ------------------------------------------------------- ------------------------ ---------------- ----------- -------------------------- --- -------- ------------------- ---------------------- 
103    resize_103 (Resize, RESIZE_BILINEAR)                    [b:1,h:8,w:8,c:32]                              8,192                 eltwise_86   |                              Resize_[72]            
------ ------------------------------------------------------- ------------------------ ---------------- ----------- -------------------------- --- -------- ------------------- ---------------------- 
104    eltwise_104 (Eltwise, ADD)                              [b:1,h:8,w:8,c:32]                              2,048                  conv2d_34   |                              Eltwise/add_[74]       
                                                                                                                                     resize_103   | 
------ ------------------------------------------------------- ------------------------ ---------------- ----------- -------------------------- --- -------- ------------------- ---------------------- 
105    conv2d_105 (Conv2D, CONV_2D)                            [b:1,h:8,w:8,c:10]       2,890/2,920          184,330                eltwise_104   |                              Pad_/Conv2D_[75, 76]   
------ ------------------------------------------------------- ------------------------ ---------------- ----------- -------------------------- --- -------- ------------------- ---------------------- 
109    reshape_109 (Reshape, RESHAPE)                          [b:1,h:320,c:2]                                                       conv2d_105   |                              
------ ------------------------------------------------------- ------------------------ ---------------- ----------- -------------------------- --- -------- ------------------- ---------------------- 
110    conv2d_110 (Conv2D, CONV_2D)                            [b:1,h:8,w:8,c:20]       5,780/5,840          368,660                eltwise_104   |                              Pad_/Conv2D_[77, 78]   
------ ------------------------------------------------------- ------------------------ ---------------- ----------- -------------------------- --- -------- ------------------- ---------------------- 
114    reshape_114 (Reshape, RESHAPE)                          [b:1,h:320,c:4]                                                       conv2d_110   |                              
------ ------------------------------------------------------- ------------------------ ---------------- ----------- -------------------------- --- -------- ------------------- ---------------------- 
121    resize_121 (Resize, RESIZE_BILINEAR)                    [b:1,h:16,w:16,c:32]                           32,768                eltwise_104   |                              Resize_[79]            
------ ------------------------------------------------------- ------------------------ ---------------- ----------- -------------------------- --- -------- ------------------- ---------------------- 
122    eltwise_122 (Eltwise, ADD)                              [b:1,h:16,w:16,c:32]                            8,192                  conv2d_28   |                              Eltwise/add_[81]       
                                                                                                                                     resize_121   | 
------ ------------------------------------------------------- ------------------------ ---------------- ----------- -------------------------- --- -------- ------------------- ---------------------- 
123    conv2d_123 (Conv2D, CONV_2D)                            [b:1,h:16,w:16,c:10]     2,890/2,920          737,290                eltwise_122   |                              Pad_/Conv2D_[82, 83]   
------ ------------------------------------------------------- ------------------------ ---------------- ----------- -------------------------- --- -------- ------------------- ---------------------- 
127    reshape_127 (Reshape, RESHAPE)                          [b:1,h:1280,c:2]                                                      conv2d_123   |                              
------ ------------------------------------------------------- ------------------------ ---------------- ----------- -------------------------- --- -------- ------------------- ---------------------- 
128    conv2d_128 (Conv2D, CONV_2D)                            [b:1,h:16,w:16,c:20]     5,780/5,840        1,474,580                eltwise_122   |                              Pad_/Conv2D_[84, 85]   
------ ------------------------------------------------------- ------------------------ ---------------- ----------- -------------------------- --- -------- ------------------- ---------------------- 
132    reshape_132 (Reshape, RESHAPE)                          [b:1,h:1280,c:4]                                                      conv2d_128   |                              
------ ------------------------------------------------------- ------------------------ ---------------- ----------- -------------------------- --- -------- ------------------- ---------------------- 
139    resize_139 (Resize, RESIZE_BILINEAR)                    [b:1,h:32,w:32,c:32]                          131,072                eltwise_122   |                              Resize_[86]            
------ ------------------------------------------------------- ------------------------ ---------------- ----------- -------------------------- --- -------- ------------------- ---------------------- 
140    eltwise_140 (Eltwise, ADD)                              [b:1,h:32,w:32,c:32]                           32,768                  conv2d_14   |                              Eltwise/add_[88]       
                                                                                                                                     resize_139   | 
------ ------------------------------------------------------- ------------------------ ---------------- ----------- -------------------------- --- -------- ------------------- ---------------------- 
141    conv2d_141 (Conv2D, CONV_2D)                            [b:1,h:32,w:32,c:10]     2,890/2,920        2,949,130                eltwise_140   |                              Pad_/Conv2D_[89, 90]   
------ ------------------------------------------------------- ------------------------ ---------------- ----------- -------------------------- --- -------- ------------------- ---------------------- 
145    reshape_145 (Reshape, RESHAPE)                          [b:1,h:5120,c:2]                                                      conv2d_141   |                              
------ ------------------------------------------------------- ------------------------ ---------------- ----------- -------------------------- --- -------- ------------------- ---------------------- 
146    concat_146 (Concat, CONCATENATION)                      [b:1,h:6825,c:2]                                                     reshape_145   |                              Concat_[91]            
                                                                                                                                    reshape_127   | 
                                                                                                                                    reshape_109   | 
                                                                                                                                     reshape_91   | 
                                                                                                                                     reshape_73   | 
                                                                                                                                     reshape_55   | 
------ ------------------------------------------------------- ------------------------ ---------------- ----------- -------------------------- --- -------- ------------------- ---------------------- 
147    nl_147 (Nonlinearity, SOFTMAX)                          [b:1,h:6825,c:2]                              204,750                 concat_146   |                              Nonlinearity_[92]      
------ ------------------------------------------------------- ------------------------ ---------------- ----------- -------------------------- --- -------- ------------------- ---------------------- 
148    conversion_148 (Conversion, DEQUANTIZE)                 [b:1,h:6825,c:2]                               27,300                     nl_147   |                              Conversion_[o][93]     
------ ------------------------------------------------------- ------------------------ ---------------- ----------- -------------------------- --- -------- ------------------- ---------------------- 
149    conv2d_149 (Conv2D, CONV_2D)                            [b:1,h:32,w:32,c:20]     5,780/5,840        5,898,260                eltwise_140   |                              Pad_/Conv2D_[94, 95]   
------ ------------------------------------------------------- ------------------------ ---------------- ----------- -------------------------- --- -------- ------------------- ---------------------- 
153    reshape_153 (Reshape, RESHAPE)                          [b:1,h:5120,c:4]                                                      conv2d_149   |                              
------ ------------------------------------------------------- ------------------------ ---------------- ----------- -------------------------- --- -------- ------------------- ---------------------- 
154    concat_154 (Concat, CONCATENATION)                      [b:1,h:6825,c:4]                                                     reshape_153   |                              Concat_[96]            
                                                                                                                                    reshape_132   | 
                                                                                                                                    reshape_114   | 
                                                                                                                                     reshape_96   | 
                                                                                                                                     reshape_78   | 
                                                                                                                                     reshape_60   | 
------ ------------------------------------------------------- ------------------------ ---------------- ----------- -------------------------- --- -------- ------------------- ---------------------- 
155    conversion_155 (Conversion, DEQUANTIZE)                 [b:1,h:6825,c:4]                               54,600                 concat_154   |                              Conversion_[o][97]     
------ ------------------------------------------------------- ------------------------ ---------------- ----------- -------------------------- --- -------- ------------------- ---------------------- 
163    conversion_163_const (Placeholder, DEQUANTIZE)          [b:1,h:6825,c:4]         27,300/109,200                                            |                              Concat_[o][0]          
       conversion_163_const_to_output (Identity, DEQUANTIZE)   [b:1,h:6825,c:4]                                            conversion_163_const   |                              
------ ------------------------------------------------------- ------------------------ ---------------- ----------- -------------------------- --- -------- ------------------- ---------------------- 
model/c-model: macc=74,168,606/72,501,534 -1,667,072(-2.2%) weights=691,856/691,856  activations=--/596,680 io=--/0



Generated C-graph summary
------------------------------------------------------------------------------------------------------------------------
model name            : a9ca35302c7e4a15ad5d9637eacadc58
c-name                : network
c-node #              : 98
c-array #             : 260
activations size      : 596680 (3 segments)
weights size          : 691856 (1 segment)
macc                  : 72501534
inputs                : ['serving_default_input_10_output']
outputs               : ['conversion_148_output', 'conversion_155_output', 'conversion_163_const_to_output_copy_output']

C-Arrays (260)
------ -------------------------------------------- --------------- --------------------- ------------- --------- 
c_id   name (*_array)                               item/size       domain/mem-pool       c-type        comment   
------ -------------------------------------------- --------------- --------------------- ------------- --------- 
0      concat_146_output                            13650/13650     activations/AXIRAM    s8                      
1      concat_154_output                            27300/27300     activations/AXIRAM    s8                      
2      conv2d_105_bias                              10/40           weights/weights       const s32               
3      conv2d_105_output                            640/640         activations/AXIRAM    s8                      
4      conv2d_105_pad_before_output                 3200/3200       activations/AXIRAM    s8                      
5      conv2d_105_scratch0                          6412/6412       activations/DTCMRAM   s8                      
6      conv2d_105_weights                           2880/2880       weights/weights       const s8                
7      conv2d_10_bias                               32/128          weights/weights       const s32               
8      conv2d_10_output                             32768/32768     activations/AXIRAM    s8                      
9      conv2d_10_pad_before_output                  135200/135200   activations/AXIRAM    s8                      
10     conv2d_10_scratch0                           1185/1185       activations/DTCMRAM   s8                      
11     conv2d_10_weights                            288/288         weights/weights       const s8                
12     conv2d_110_bias                              20/80           weights/weights       const s32               
13     conv2d_110_output                            1280/1280       activations/AXIRAM    s8                      
14     conv2d_110_pad_before_output                 3200/3200       activations/AXIRAM    s8                      
15     conv2d_110_scratch0                          6552/6552       activations/DTCMRAM   s8                      
16     conv2d_110_weights                           5760/5760       weights/weights       const s8                
17     conv2d_11_bias                               64/256          weights/weights       const s32               
18     conv2d_11_output                             65536/65536     activations/AXIRAM    s8                      
19     conv2d_11_scratch0                           768/768         activations/DTCMRAM   s8                      
20     conv2d_11_weights                            2048/2048       weights/weights       const s8                
21     conv2d_123_bias                              10/40           weights/weights       const s32               
22     conv2d_123_output                            2560/2560       activations/AXIRAM    s8                      
23     conv2d_123_pad_before_output                 10368/10368     activations/AXIRAM    s8                      
24     conv2d_123_scratch0                          6412/6412       activations/DTCMRAM   s8                      
25     conv2d_123_weights                           2880/2880       weights/weights       const s8                
26     conv2d_128_bias                              20/80           weights/weights       const s32               
27     conv2d_128_output                            5120/5120       activations/AXIRAM    s8                      
28     conv2d_128_pad_before_output                 10368/10368     activations/AXIRAM    s8                      
29     conv2d_128_scratch0                          6552/6552       activations/DTCMRAM   s8                      
30     conv2d_128_weights                           5760/5760       weights/weights       const s8                
31     conv2d_12_bias                               64/256          weights/weights       const s32               
32     conv2d_12_output                             65536/65536     activations/AXIRAM    s8                      
33     conv2d_12_pad_before_output                  73984/73984     activations/AXIRAM    s8                      
34     conv2d_12_scratch0                           2369/2369       activations/DTCMRAM   s8                      
35     conv2d_12_weights                            576/576         weights/weights       const s8                
36     conv2d_13_bias                               64/256          weights/weights       const s32               
37     conv2d_13_output                             65536/65536     activations/AXIRAM    s8                      
38     conv2d_13_scratch0                           896/896         activations/DTCMRAM   s8                      
39     conv2d_13_weights                            4096/4096       weights/weights       const s8                
40     conv2d_141_bias                              10/40           weights/weights       const s32               
41     conv2d_141_output                            10240/10240     activations/AXIRAM    s8                      
42     conv2d_141_pad_before_output                 36992/36992     activations/AXIRAM    s8                      
43     conv2d_141_scratch0                          6412/6412       activations/DTCMRAM   s8                      
44     conv2d_141_weights                           2880/2880       weights/weights       const s8                
45     conv2d_149_bias                              20/80           weights/weights       const s32               
46     conv2d_149_output                            20480/20480     activations/AXIRAM    s8                      
47     conv2d_149_pad_before_output                 36992/36992     activations/AXIRAM    s8                      
48     conv2d_149_scratch0                          6552/6552       activations/DTCMRAM   s8                      
49     conv2d_149_weights                           5760/5760       weights/weights       const s8                
50     conv2d_14_bias                               32/128          weights/weights       const s32               
51     conv2d_14_output                             32768/32768     activations/AXIRAM    s8                      
52     conv2d_14_scratch0                           576/576         activations/DTCMRAM   s8                      
53     conv2d_14_weights                            2048/2048       weights/weights       const s8                
54     conv2d_16_bias                               64/256          weights/weights       const s32               
55     conv2d_16_output                             16384/16384     activations/AXIRAM    s8                      
56     conv2d_16_pad_before_output                  69696/69696     activations/AXIRAM    s8                      
57     conv2d_16_scratch0                           2369/2369       activations/DTCMRAM   s8                      
58     conv2d_16_weights                            576/576         weights/weights       const s8                
59     conv2d_17_bias                               128/512         weights/weights       const s32               
60     conv2d_17_output                             32768/32768     activations/AXIRAM    s8                      
61     conv2d_17_scratch0                           1536/1536       activations/DTCMRAM   s8                      
62     conv2d_17_weights                            8192/8192       weights/weights       const s8                
63     conv2d_18_bias                               128/512         weights/weights       const s32               
64     conv2d_18_output                             32768/32768     activations/AXIRAM    s8                      
65     conv2d_18_pad_before_output                  41472/41472     activations/AXIRAM    s8                      
66     conv2d_18_scratch0                           4737/4737       activations/DTCMRAM   s8                      
67     conv2d_18_weights                            1152/1152       weights/weights       const s8                
68     conv2d_19_bias                               128/512         weights/weights       const s32               
69     conv2d_19_output                             32768/32768     activations/AXIRAM    s8                      
70     conv2d_19_scratch0                           1792/1792       activations/DTCMRAM   s8                      
71     conv2d_19_weights                            16384/16384     weights/weights       const s8                
72     conv2d_1_bias                                8/32            weights/weights       const s32               
73     conv2d_1_output                              131072/131072   activations/AXIRAM    s8                      
74     conv2d_1_scratch0                            652/652         activations/DTCMRAM   s8                      
75     conv2d_1_weights                             216/216         weights/weights       const s8                
76     conv2d_20_bias                               128/512         weights/weights       const s32               
77     conv2d_20_output                             32768/32768     activations/AXIRAM    s8                      
78     conv2d_20_pad_before_output                  41472/41472     activations/AXIRAM    s8                      
79     conv2d_20_scratch0                           4737/4737       activations/DTCMRAM   s8                      
80     conv2d_20_weights                            1152/1152       weights/weights       const s8                
81     conv2d_21_bias                               128/512         weights/weights       const s32               
82     conv2d_21_output                             32768/32768     activations/AXIRAM    s8                      
83     conv2d_21_scratch0                           1792/1792       activations/DTCMRAM   s8                      
84     conv2d_21_weights                            16384/16384     weights/weights       const s8                
85     conv2d_22_bias                               128/512         weights/weights       const s32               
86     conv2d_22_output                             32768/32768     activations/AXIRAM    s8                      
87     conv2d_22_pad_before_output                  41472/41472     activations/AXIRAM    s8                      
88     conv2d_22_scratch0                           4737/4737       activations/DTCMRAM   s8                      
89     conv2d_22_weights                            1152/1152       weights/weights       const s8                
90     conv2d_23_bias                               128/512         weights/weights       const s32               
91     conv2d_23_output                             32768/32768     activations/AXIRAM    s8                      
92     conv2d_23_scratch0                           1792/1792       activations/DTCMRAM   s8                      
93     conv2d_23_weights                            16384/16384     weights/weights       const s8                
94     conv2d_24_bias                               128/512         weights/weights       const s32               
95     conv2d_24_output                             32768/32768     activations/AXIRAM    s8                      
96     conv2d_24_pad_before_output                  41472/41472     activations/AXIRAM    s8                      
97     conv2d_24_scratch0                           4737/4737       activations/DTCMRAM   s8                      
98     conv2d_24_weights                            1152/1152       weights/weights       const s8                
99     conv2d_25_bias                               128/512         weights/weights       const s32               
100    conv2d_25_output                             32768/32768     activations/AXIRAM    s8                      
101    conv2d_25_scratch0                           1792/1792       activations/DTCMRAM   s8                      
102    conv2d_25_weights                            16384/16384     weights/weights       const s8                
103    conv2d_26_bias                               128/512         weights/weights       const s32               
104    conv2d_26_output                             32768/32768     activations/AXIRAM    s8                      
105    conv2d_26_pad_before_output                  41472/41472     activations/AXIRAM    s8                      
106    conv2d_26_scratch0                           4737/4737       activations/DTCMRAM   s8                      
107    conv2d_26_weights                            1152/1152       weights/weights       const s8                
108    conv2d_27_bias                               128/512         weights/weights       const s32               
109    conv2d_27_output                             32768/32768     activations/AXIRAM    s8                      
110    conv2d_27_scratch0                           1792/1792       activations/DTCMRAM   s8                      
111    conv2d_27_weights                            16384/16384     weights/weights       const s8                
112    conv2d_28_bias                               32/128          weights/weights       const s32               
113    conv2d_28_output                             8192/8192       activations/AXIRAM    s8                      
114    conv2d_28_scratch0                           832/832         activations/DTCMRAM   s8                      
115    conv2d_28_weights                            4096/4096       weights/weights       const s8                
116    conv2d_2_bias                                8/32            weights/weights       const s32               
117    conv2d_2_output                              131072/131072   activations/AXIRAM    s8                      
118    conv2d_2_pad_before_output                   135200/135200   activations/AXIRAM    s8                      
119    conv2d_2_scratch0                            297/297         activations/DTCMRAM   s8                      
120    conv2d_2_weights                             72/72           weights/weights       const s8                
121    conv2d_30_bias                               128/512         weights/weights       const s32               
122    conv2d_30_output                             8192/8192       activations/AXIRAM    s8                      
123    conv2d_30_pad_before_output                  36992/36992     activations/AXIRAM    s8                      
124    conv2d_30_scratch0                           4737/4737       activations/DTCMRAM   s8                      
125    conv2d_30_weights                            1152/1152       weights/weights       const s8                
126    conv2d_31_bias                               256/1024        weights/weights       const s32               
127    conv2d_31_output                             16384/16384     activations/AXIRAM    s8                      
128    conv2d_31_scratch0                           3072/3072       activations/DTCMRAM   s8                      
129    conv2d_31_weights                            32768/32768     weights/weights       const s8                
130    conv2d_32_bias                               256/1024        weights/weights       const s32               
131    conv2d_32_output                             16384/16384     activations/AXIRAM    s8                      
132    conv2d_32_pad_before_output                  25600/25600     activations/AXIRAM    s8                      
133    conv2d_32_scratch0                           9473/9473       activations/DTCMRAM   s8                      
134    conv2d_32_weights                            2304/2304       weights/weights       const s8                
135    conv2d_33_bias                               256/1024        weights/weights       const s32               
136    conv2d_33_output                             16384/16384     activations/AXIRAM    s8                      
137    conv2d_33_scratch0                           3584/3584       activations/DTCMRAM   s8                      
138    conv2d_33_weights                            65536/65536     weights/weights       const s8                
139    conv2d_34_bias                               32/128          weights/weights       const s32               
140    conv2d_34_output                             2048/2048       activations/AXIRAM    s8                      
141    conv2d_34_scratch0                           1344/1344       activations/DTCMRAM   s8                      
142    conv2d_34_weights                            8192/8192       weights/weights       const s8                
143    conv2d_35_bias                               256/1024        weights/weights       const s32               
144    conv2d_35_output                             4096/4096       activations/AXIRAM    s8                      
145    conv2d_35_pad_before_output                  25600/25600     activations/AXIRAM    s8                      
146    conv2d_35_scratch0                           9473/9473       activations/DTCMRAM   s8                      
147    conv2d_35_weights                            2304/2304       weights/weights       const s8                
148    conv2d_36_bias                               256/1024        weights/weights       const s32               
149    conv2d_36_output                             4096/4096       activations/AXIRAM    s8                      
150    conv2d_36_scratch0                           3584/3584       activations/DTCMRAM   s8                      
151    conv2d_36_weights                            65536/65536     weights/weights       const s8                
152    conv2d_37_bias                               256/1024        weights/weights       const s32               
153    conv2d_37_output                             4096/4096       activations/AXIRAM    s8                      
154    conv2d_37_pad_before_output                  9216/9216       activations/AXIRAM    s8                      
155    conv2d_37_scratch0                           9473/9473       activations/DTCMRAM   s8                      
156    conv2d_37_weights                            2304/2304       weights/weights       const s8                
157    conv2d_38_bias                               256/1024        weights/weights       const s32               
158    conv2d_38_output                             4096/4096       activations/AXIRAM    s8                      
159    conv2d_38_scratch0                           3584/3584       activations/DTCMRAM   s8                      
160    conv2d_38_weights                            65536/65536     weights/weights       const s8                
161    conv2d_39_bias                               32/128          weights/weights       const s32               
162    conv2d_39_output                             512/512         activations/AXIRAM    s8                      
163    conv2d_39_scratch0                           1344/1344       activations/DTCMRAM   s8                      
164    conv2d_39_weights                            8192/8192       weights/weights       const s8                
165    conv2d_3_bias                                16/64           weights/weights       const s32               
166    conv2d_3_output                              262144/262144   activations/SDRAM     s8                      
167    conv2d_3_scratch0                            192/192         activations/DTCMRAM   s8                      
168    conv2d_3_weights                             128/128         weights/weights       const s8                
169    conv2d_40_bias                               256/1024        weights/weights       const s32               
170    conv2d_40_output                             1024/1024       activations/AXIRAM    s8                      
171    conv2d_40_pad_before_output                  9216/9216       activations/AXIRAM    s8                      
172    conv2d_40_scratch0                           9473/9473       activations/DTCMRAM   s8                      
173    conv2d_40_weights                            2304/2304       weights/weights       const s8                
174    conv2d_41_bias                               256/1024        weights/weights       const s32               
175    conv2d_41_output                             1024/1024       activations/AXIRAM    s8                      
176    conv2d_41_scratch0                           3584/3584       activations/DTCMRAM   s8                      
177    conv2d_41_weights                            65536/65536     weights/weights       const s8                
178    conv2d_42_bias                               256/1024        weights/weights       const s32               
179    conv2d_42_output                             1024/1024       activations/AXIRAM    s8                      
180    conv2d_42_pad_before_output                  4096/4096       activations/AXIRAM    s8                      
181    conv2d_42_scratch0                           9473/9473       activations/DTCMRAM   s8                      
182    conv2d_42_weights                            2304/2304       weights/weights       const s8                
183    conv2d_43_bias                               256/1024        weights/weights       const s32               
184    conv2d_43_output                             1024/1024       activations/AXIRAM    s8                      
185    conv2d_43_scratch0                           3584/3584       activations/DTCMRAM   s8                      
186    conv2d_43_weights                            65536/65536     weights/weights       const s8                
187    conv2d_44_bias                               32/128          weights/weights       const s32               
188    conv2d_44_output                             128/128         activations/AXIRAM    s8                      
189    conv2d_44_scratch0                           1344/1344       activations/DTCMRAM   s8                      
190    conv2d_44_weights                            8192/8192       weights/weights       const s8                
191    conv2d_50_bias                               32/128          weights/weights       const s32               
192    conv2d_50_output                             32/32           activations/AXIRAM    s8                      
193    conv2d_50_scratch0                           1344/1344       activations/DTCMRAM   s8                      
194    conv2d_50_weights                            8192/8192       weights/weights       const s8                
195    conv2d_51_bias                               10/40           weights/weights       const s32               
196    conv2d_51_output                             10/10           activations/AXIRAM    s8                      
197    conv2d_51_scratch0                           228/228         activations/DTCMRAM   s8                      
198    conv2d_51_weights                            320/320         weights/weights       const s8                
199    conv2d_56_bias                               20/80           weights/weights       const s32               
200    conv2d_56_output                             20/20           activations/AXIRAM    s8                      
201    conv2d_56_scratch0                           328/328         activations/DTCMRAM   s8                      
202    conv2d_56_weights                            640/640         weights/weights       const s8                
203    conv2d_5_bias                                16/64           weights/weights       const s32               
204    conv2d_5_output                              65536/65536     activations/AXIRAM    s8                      
205    conv2d_5_pad_before_output                   266256/266256   activations/SDRAM     s8                      
206    conv2d_5_scratch0                            593/593         activations/DTCMRAM   s8                      
207    conv2d_5_weights                             144/144         weights/weights       const s8                
208    conv2d_69_bias                               10/40           weights/weights       const s32               
209    conv2d_69_output                             40/40           activations/AXIRAM    s8                      
210    conv2d_69_pad_before_output                  512/512         activations/AXIRAM    s8                      
211    conv2d_69_scratch0                           6412/6412       activations/DTCMRAM   s8                      
212    conv2d_69_weights                            2880/2880       weights/weights       const s8                
213    conv2d_6_bias                                32/128          weights/weights       const s32               
214    conv2d_6_output                              131072/131072   activations/AXIRAM    s8                      
215    conv2d_6_scratch0                            384/384         activations/DTCMRAM   s8                      
216    conv2d_6_weights                             512/512         weights/weights       const s8                
217    conv2d_74_bias                               20/80           weights/weights       const s32               
218    conv2d_74_output                             80/80           activations/AXIRAM    s8                      
219    conv2d_74_pad_before_output                  512/512         activations/AXIRAM    s8                      
220    conv2d_74_scratch0                           6552/6552       activations/DTCMRAM   s8                      
221    conv2d_74_weights                            5760/5760       weights/weights       const s8                
222    conv2d_7_bias                                32/128          weights/weights       const s32               
223    conv2d_7_output                              131072/131072   activations/AXIRAM    s8                      
224    conv2d_7_pad_before_output                   139392/139392   activations/AXIRAM    s8                      
225    conv2d_7_scratch0                            1185/1185       activations/DTCMRAM   s8                      
226    conv2d_7_weights                             288/288         weights/weights       const s8                
227    conv2d_87_bias                               10/40           weights/weights       const s32               
228    conv2d_87_output                             160/160         activations/AXIRAM    s8                      
229    conv2d_87_pad_before_output                  1152/1152       activations/AXIRAM    s8                      
230    conv2d_87_scratch0                           6412/6412       activations/DTCMRAM   s8                      
231    conv2d_87_weights                            2880/2880       weights/weights       const s8                
232    conv2d_8_bias                                32/128          weights/weights       const s32               
233    conv2d_8_output                              131072/131072   activations/AXIRAM    s8                      
234    conv2d_8_scratch0                            448/448         activations/DTCMRAM   s8                      
235    conv2d_8_weights                             1024/1024       weights/weights       const s8                
236    conv2d_92_bias                               20/80           weights/weights       const s32               
237    conv2d_92_output                             320/320         activations/AXIRAM    s8                      
238    conv2d_92_pad_before_output                  1152/1152       activations/AXIRAM    s8                      
239    conv2d_92_scratch0                           6552/6552       activations/DTCMRAM   s8                      
240    conv2d_92_weights                            5760/5760       weights/weights       const s8                
241    conversion_0_output                          196608/196609   activations/AXIRAM    s8                      
242    conversion_148_output                        13650/54600     activations/AXIRAM    float         /output   
243    conversion_155_output                        27300/109200    activations/AXIRAM    float         /output   
244    conversion_163_const                         27300/109200    weights/weights       const float             
245    conversion_163_const_to_output_copy_output   27300/109200    activations/AXIRAM    float         /output   
246    eltwise_104_output                           2048/2048       activations/AXIRAM    s8                      
247    eltwise_122_output                           8192/8192       activations/AXIRAM    s8                      
248    eltwise_140_output                           32768/32768     activations/AXIRAM    s8                      
249    eltwise_68_output                            128/128         activations/AXIRAM    s8                      
250    eltwise_86_output                            512/512         activations/AXIRAM    s8                      
251    nl_147_output                                13650/13650     activations/AXIRAM    s8                      
252    nl_147_scratch0                              248/992         activations/DTCMRAM   s32                     
253    pool_45_output                               256/256         activations/AXIRAM    s8                      
254    resize_103_output                            2048/2048       activations/AXIRAM    s8                      
255    resize_121_output                            8192/8192       activations/AXIRAM    s8                      
256    resize_139_output                            32768/32768     activations/AXIRAM    s8                      
257    resize_85_output                             512/512         activations/AXIRAM    s8                      
258    serving_default_input_10_output              196608/196608   activations/AXIRAM    u8            /input    
259    tile_67_output                               128/128         activations/AXIRAM    s8                      
------ -------------------------------------------- --------------- --------------------- ------------- --------- 

C-Layers (98)
------ ----------------------- ----- --------------- --------- ------- ------------------------------------ -------------------------- 
c_id   name (*_layer)          id    layer_type      macc      rom     tensors                              shape (array id)           
------ ----------------------- ----- --------------- --------- ------- ------------------------------------ -------------------------- 
1      conversion_0            0     Conversion      393216    0       I: serving_default_input_10_output   uint8(1x256x256x3) (258)   
                                                                       O: conversion_0_output               int8(1x256x256x3) (241)    
------ ----------------------- ----- --------------- --------- ------- ------------------------------------ -------------------------- 
2      conv2d_1                1     Conv2D          3538952   248     I: conversion_0_output               int8(1x256x256x3) (241)    
                                                                       S: conv2d_1_scratch0                                            
                                                                       W: conv2d_1_weights                  int8(8x3x3x3) (75)         
                                                                       W: conv2d_1_bias                     int32(8) (72)              
                                                                       O: conv2d_1_output                   int8(1x128x128x8) (73)     
------ ----------------------- ----- --------------- --------- ------- ------------------------------------ -------------------------- 
3      conv2d_2_pad_before     2     Pad             0         0       I: conv2d_1_output                   int8(1x128x128x8) (73)     
                                                                       O: conv2d_2_pad_before_output        int8(1x130x130x8) (118)    
------ ----------------------- ----- --------------- --------- ------- ------------------------------------ -------------------------- 
4      conv2d_2                2     Conv2D          1179656   104     I: conv2d_2_pad_before_output        int8(1x130x130x8) (118)    
                                                                       S: conv2d_2_scratch0                                            
                                                                       W: conv2d_2_weights                  int8(1x3x3x8) (120)        
                                                                       W: conv2d_2_bias                     int32(8) (116)             
                                                                       O: conv2d_2_output                   int8(1x128x128x8) (117)    
------ ----------------------- ----- --------------- --------- ------- ------------------------------------ -------------------------- 
5      conv2d_3                3     Conv2D          2097168   192     I: conv2d_2_output                   int8(1x128x128x8) (117)    
                                                                       S: conv2d_3_scratch0                                            
                                                                       W: conv2d_3_weights                  int8(16x1x1x8) (168)       
                                                                       W: conv2d_3_bias                     int32(16) (165)            
                                                                       O: conv2d_3_output                   int8(1x128x128x16) (166)   
------ ----------------------- ----- --------------- --------- ------- ------------------------------------ -------------------------- 
6      conv2d_5_pad_before     4     Pad             0         0       I: conv2d_3_output                   int8(1x128x128x16) (166)   
                                                                       O: conv2d_5_pad_before_output        int8(1x129x129x16) (205)   
------ ----------------------- ----- --------------- --------- ------- ------------------------------------ -------------------------- 
7      conv2d_5                5     Conv2D          589840    208     I: conv2d_5_pad_before_output        int8(1x129x129x16) (205)   
                                                                       S: conv2d_5_scratch0                                            
                                                                       W: conv2d_5_weights                  int8(1x3x3x16) (207)       
                                                                       W: conv2d_5_bias                     int32(16) (203)            
                                                                       O: conv2d_5_output                   int8(1x64x64x16) (204)     
------ ----------------------- ----- --------------- --------- ------- ------------------------------------ -------------------------- 
8      conv2d_6                6     Conv2D          2097184   640     I: conv2d_5_output                   int8(1x64x64x16) (204)     
                                                                       S: conv2d_6_scratch0                                            
                                                                       W: conv2d_6_weights                  int8(32x1x1x16) (216)      
                                                                       W: conv2d_6_bias                     int32(32) (213)            
                                                                       O: conv2d_6_output                   int8(1x64x64x32) (214)     
------ ----------------------- ----- --------------- --------- ------- ------------------------------------ -------------------------- 
9      conv2d_7_pad_before     7     Pad             0         0       I: conv2d_6_output                   int8(1x64x64x32) (214)     
                                                                       O: conv2d_7_pad_before_output        int8(1x66x66x32) (224)     
------ ----------------------- ----- --------------- --------- ------- ------------------------------------ -------------------------- 
10     conv2d_7                7     Conv2D          1179680   416     I: conv2d_7_pad_before_output        int8(1x66x66x32) (224)     
                                                                       S: conv2d_7_scratch0                                            
                                                                       W: conv2d_7_weights                  int8(1x3x3x32) (226)       
                                                                       W: conv2d_7_bias                     int32(32) (222)            
                                                                       O: conv2d_7_output                   int8(1x64x64x32) (223)     
------ ----------------------- ----- --------------- --------- ------- ------------------------------------ -------------------------- 
11     conv2d_8                8     Conv2D          4194336   1152    I: conv2d_7_output                   int8(1x64x64x32) (223)     
                                                                       S: conv2d_8_scratch0                                            
                                                                       W: conv2d_8_weights                  int8(32x1x1x32) (235)      
                                                                       W: conv2d_8_bias                     int32(32) (232)            
                                                                       O: conv2d_8_output                   int8(1x64x64x32) (233)     
------ ----------------------- ----- --------------- --------- ------- ------------------------------------ -------------------------- 
12     conv2d_10_pad_before    9     Pad             0         0       I: conv2d_8_output                   int8(1x64x64x32) (233)     
                                                                       O: conv2d_10_pad_before_output       int8(1x65x65x32) (9)       
------ ----------------------- ----- --------------- --------- ------- ------------------------------------ -------------------------- 
13     conv2d_10               10    Conv2D          294944    416     I: conv2d_10_pad_before_output       int8(1x65x65x32) (9)       
                                                                       S: conv2d_10_scratch0                                           
                                                                       W: conv2d_10_weights                 int8(1x3x3x32) (11)        
                                                                       W: conv2d_10_bias                    int32(32) (7)              
                                                                       O: conv2d_10_output                  int8(1x32x32x32) (8)       
------ ----------------------- ----- --------------- --------- ------- ------------------------------------ -------------------------- 
14     conv2d_11               11    Conv2D          2097216   2304    I: conv2d_10_output                  int8(1x32x32x32) (8)       
                                                                       S: conv2d_11_scratch0                                           
                                                                       W: conv2d_11_weights                 int8(64x1x1x32) (20)       
                                                                       W: conv2d_11_bias                    int32(64) (17)             
                                                                       O: conv2d_11_output                  int8(1x32x32x64) (18)      
------ ----------------------- ----- --------------- --------- ------- ------------------------------------ -------------------------- 
15     conv2d_12_pad_before    12    Pad             0         0       I: conv2d_11_output                  int8(1x32x32x64) (18)      
                                                                       O: conv2d_12_pad_before_output       int8(1x34x34x64) (33)      
------ ----------------------- ----- --------------- --------- ------- ------------------------------------ -------------------------- 
16     conv2d_12               12    Conv2D          589888    832     I: conv2d_12_pad_before_output       int8(1x34x34x64) (33)      
                                                                       S: conv2d_12_scratch0                                           
                                                                       W: conv2d_12_weights                 int8(1x3x3x64) (35)        
                                                                       W: conv2d_12_bias                    int32(64) (31)             
                                                                       O: conv2d_12_output                  int8(1x32x32x64) (32)      
------ ----------------------- ----- --------------- --------- ------- ------------------------------------ -------------------------- 
17     conv2d_13               13    Conv2D          4194368   4352    I: conv2d_12_output                  int8(1x32x32x64) (32)      
                                                                       S: conv2d_13_scratch0                                           
                                                                       W: conv2d_13_weights                 int8(64x1x1x64) (39)       
                                                                       W: conv2d_13_bias                    int32(64) (36)             
                                                                       O: conv2d_13_output                  int8(1x32x32x64) (37)      
------ ----------------------- ----- --------------- --------- ------- ------------------------------------ -------------------------- 
18     conv2d_16_pad_before    15    Pad             0         0       I: conv2d_13_output                  int8(1x32x32x64) (37)      
                                                                       O: conv2d_16_pad_before_output       int8(1x33x33x64) (56)      
------ ----------------------- ----- --------------- --------- ------- ------------------------------------ -------------------------- 
19     conv2d_16               16    Conv2D          147520    832     I: conv2d_16_pad_before_output       int8(1x33x33x64) (56)      
                                                                       S: conv2d_16_scratch0                                           
                                                                       W: conv2d_16_weights                 int8(1x3x3x64) (58)        
                                                                       W: conv2d_16_bias                    int32(64) (54)             
                                                                       O: conv2d_16_output                  int8(1x16x16x64) (55)      
------ ----------------------- ----- --------------- --------- ------- ------------------------------------ -------------------------- 
20     conv2d_17               17    Conv2D          2097280   8704    I: conv2d_16_output                  int8(1x16x16x64) (55)      
                                                                       S: conv2d_17_scratch0                                           
                                                                       W: conv2d_17_weights                 int8(128x1x1x64) (62)      
                                                                       W: conv2d_17_bias                    int32(128) (59)            
                                                                       O: conv2d_17_output                  int8(1x16x16x128) (60)     
------ ----------------------- ----- --------------- --------- ------- ------------------------------------ -------------------------- 
21     conv2d_18_pad_before    18    Pad             0         0       I: conv2d_17_output                  int8(1x16x16x128) (60)     
                                                                       O: conv2d_18_pad_before_output       int8(1x18x18x128) (65)     
------ ----------------------- ----- --------------- --------- ------- ------------------------------------ -------------------------- 
22     conv2d_18               18    Conv2D          295040    1664    I: conv2d_18_pad_before_output       int8(1x18x18x128) (65)     
                                                                       S: conv2d_18_scratch0                                           
                                                                       W: conv2d_18_weights                 int8(1x3x3x128) (67)       
                                                                       W: conv2d_18_bias                    int32(128) (63)            
                                                                       O: conv2d_18_output                  int8(1x16x16x128) (64)     
------ ----------------------- ----- --------------- --------- ------- ------------------------------------ -------------------------- 
23     conv2d_19               19    Conv2D          4194432   16896   I: conv2d_18_output                  int8(1x16x16x128) (64)     
                                                                       S: conv2d_19_scratch0                                           
                                                                       W: conv2d_19_weights                 int8(128x1x1x128) (71)     
                                                                       W: conv2d_19_bias                    int32(128) (68)            
                                                                       O: conv2d_19_output                  int8(1x16x16x128) (69)     
------ ----------------------- ----- --------------- --------- ------- ------------------------------------ -------------------------- 
24     conv2d_20_pad_before    20    Pad             0         0       I: conv2d_19_output                  int8(1x16x16x128) (69)     
                                                                       O: conv2d_20_pad_before_output       int8(1x18x18x128) (78)     
------ ----------------------- ----- --------------- --------- ------- ------------------------------------ -------------------------- 
25     conv2d_20               20    Conv2D          295040    1664    I: conv2d_20_pad_before_output       int8(1x18x18x128) (78)     
                                                                       S: conv2d_20_scratch0                                           
                                                                       W: conv2d_20_weights                 int8(1x3x3x128) (80)       
                                                                       W: conv2d_20_bias                    int32(128) (76)            
                                                                       O: conv2d_20_output                  int8(1x16x16x128) (77)     
------ ----------------------- ----- --------------- --------- ------- ------------------------------------ -------------------------- 
26     conv2d_21               21    Conv2D          4194432   16896   I: conv2d_20_output                  int8(1x16x16x128) (77)     
                                                                       S: conv2d_21_scratch0                                           
                                                                       W: conv2d_21_weights                 int8(128x1x1x128) (84)     
                                                                       W: conv2d_21_bias                    int32(128) (81)            
                                                                       O: conv2d_21_output                  int8(1x16x16x128) (82)     
------ ----------------------- ----- --------------- --------- ------- ------------------------------------ -------------------------- 
27     conv2d_22_pad_before    22    Pad             0         0       I: conv2d_21_output                  int8(1x16x16x128) (82)     
                                                                       O: conv2d_22_pad_before_output       int8(1x18x18x128) (87)     
------ ----------------------- ----- --------------- --------- ------- ------------------------------------ -------------------------- 
28     conv2d_22               22    Conv2D          295040    1664    I: conv2d_22_pad_before_output       int8(1x18x18x128) (87)     
                                                                       S: conv2d_22_scratch0                                           
                                                                       W: conv2d_22_weights                 int8(1x3x3x128) (89)       
                                                                       W: conv2d_22_bias                    int32(128) (85)            
                                                                       O: conv2d_22_output                  int8(1x16x16x128) (86)     
------ ----------------------- ----- --------------- --------- ------- ------------------------------------ -------------------------- 
29     conv2d_23               23    Conv2D          4194432   16896   I: conv2d_22_output                  int8(1x16x16x128) (86)     
                                                                       S: conv2d_23_scratch0                                           
                                                                       W: conv2d_23_weights                 int8(128x1x1x128) (93)     
                                                                       W: conv2d_23_bias                    int32(128) (90)            
                                                                       O: conv2d_23_output                  int8(1x16x16x128) (91)     
------ ----------------------- ----- --------------- --------- ------- ------------------------------------ -------------------------- 
30     conv2d_24_pad_before    24    Pad             0         0       I: conv2d_23_output                  int8(1x16x16x128) (91)     
                                                                       O: conv2d_24_pad_before_output       int8(1x18x18x128) (96)     
------ ----------------------- ----- --------------- --------- ------- ------------------------------------ -------------------------- 
31     conv2d_24               24    Conv2D          295040    1664    I: conv2d_24_pad_before_output       int8(1x18x18x128) (96)     
                                                                       S: conv2d_24_scratch0                                           
                                                                       W: conv2d_24_weights                 int8(1x3x3x128) (98)       
                                                                       W: conv2d_24_bias                    int32(128) (94)            
                                                                       O: conv2d_24_output                  int8(1x16x16x128) (95)     
------ ----------------------- ----- --------------- --------- ------- ------------------------------------ -------------------------- 
32     conv2d_25               25    Conv2D          4194432   16896   I: conv2d_24_output                  int8(1x16x16x128) (95)     
                                                                       S: conv2d_25_scratch0                                           
                                                                       W: conv2d_25_weights                 int8(128x1x1x128) (102)    
                                                                       W: conv2d_25_bias                    int32(128) (99)            
                                                                       O: conv2d_25_output                  int8(1x16x16x128) (100)    
------ ----------------------- ----- --------------- --------- ------- ------------------------------------ -------------------------- 
33     conv2d_26_pad_before    26    Pad             0         0       I: conv2d_25_output                  int8(1x16x16x128) (100)    
                                                                       O: conv2d_26_pad_before_output       int8(1x18x18x128) (105)    
------ ----------------------- ----- --------------- --------- ------- ------------------------------------ -------------------------- 
34     conv2d_26               26    Conv2D          295040    1664    I: conv2d_26_pad_before_output       int8(1x18x18x128) (105)    
                                                                       S: conv2d_26_scratch0                                           
                                                                       W: conv2d_26_weights                 int8(1x3x3x128) (107)      
                                                                       W: conv2d_26_bias                    int32(128) (103)           
                                                                       O: conv2d_26_output                  int8(1x16x16x128) (104)    
------ ----------------------- ----- --------------- --------- ------- ------------------------------------ -------------------------- 
35     conv2d_27               27    Conv2D          4194432   16896   I: conv2d_26_output                  int8(1x16x16x128) (104)    
                                                                       S: conv2d_27_scratch0                                           
                                                                       W: conv2d_27_weights                 int8(128x1x1x128) (111)    
                                                                       W: conv2d_27_bias                    int32(128) (108)           
                                                                       O: conv2d_27_output                  int8(1x16x16x128) (109)    
------ ----------------------- ----- --------------- --------- ------- ------------------------------------ -------------------------- 
36     conv2d_30_pad_before    29    Pad             0         0       I: conv2d_27_output                  int8(1x16x16x128) (109)    
                                                                       O: conv2d_30_pad_before_output       int8(1x17x17x128) (123)    
------ ----------------------- ----- --------------- --------- ------- ------------------------------------ -------------------------- 
37     conv2d_30               30    Conv2D          73856     1664    I: conv2d_30_pad_before_output       int8(1x17x17x128) (123)    
                                                                       S: conv2d_30_scratch0                                           
                                                                       W: conv2d_30_weights                 int8(1x3x3x128) (125)      
                                                                       W: conv2d_30_bias                    int32(128) (121)           
                                                                       O: conv2d_30_output                  int8(1x8x8x128) (122)      
------ ----------------------- ----- --------------- --------- ------- ------------------------------------ -------------------------- 
38     conv2d_31               31    Conv2D          2097408   33792   I: conv2d_30_output                  int8(1x8x8x128) (122)      
                                                                       S: conv2d_31_scratch0                                           
                                                                       W: conv2d_31_weights                 int8(256x1x1x128) (129)    
                                                                       W: conv2d_31_bias                    int32(256) (126)           
                                                                       O: conv2d_31_output                  int8(1x8x8x256) (127)      
------ ----------------------- ----- --------------- --------- ------- ------------------------------------ -------------------------- 
39     conv2d_32_pad_before    32    Pad             0         0       I: conv2d_31_output                  int8(1x8x8x256) (127)      
                                                                       O: conv2d_32_pad_before_output       int8(1x10x10x256) (132)    
------ ----------------------- ----- --------------- --------- ------- ------------------------------------ -------------------------- 
40     conv2d_32               32    Conv2D          147712    3328    I: conv2d_32_pad_before_output       int8(1x10x10x256) (132)    
                                                                       S: conv2d_32_scratch0                                           
                                                                       W: conv2d_32_weights                 int8(1x3x3x256) (134)      
                                                                       W: conv2d_32_bias                    int32(256) (130)           
                                                                       O: conv2d_32_output                  int8(1x8x8x256) (131)      
------ ----------------------- ----- --------------- --------- ------- ------------------------------------ -------------------------- 
41     conv2d_33               33    Conv2D          4194560   66560   I: conv2d_32_output                  int8(1x8x8x256) (131)      
                                                                       S: conv2d_33_scratch0                                           
                                                                       W: conv2d_33_weights                 int8(256x1x1x256) (138)    
                                                                       W: conv2d_33_bias                    int32(256) (135)           
                                                                       O: conv2d_33_output                  int8(1x8x8x256) (136)      
------ ----------------------- ----- --------------- --------- ------- ------------------------------------ -------------------------- 
42     conv2d_35_pad_before    35    Pad             0         0       I: conv2d_33_output                  int8(1x8x8x256) (136)      
                                                                       O: conv2d_35_pad_before_output       int8(1x10x10x256) (145)    
------ ----------------------- ----- --------------- --------- ------- ------------------------------------ -------------------------- 
43     conv2d_35               35    Conv2D          37120     3328    I: conv2d_35_pad_before_output       int8(1x10x10x256) (145)    
                                                                       S: conv2d_35_scratch0                                           
                                                                       W: conv2d_35_weights                 int8(1x3x3x256) (147)      
                                                                       W: conv2d_35_bias                    int32(256) (143)           
                                                                       O: conv2d_35_output                  int8(1x4x4x256) (144)      
------ ----------------------- ----- --------------- --------- ------- ------------------------------------ -------------------------- 
44     conv2d_36               36    Conv2D          1048832   66560   I: conv2d_35_output                  int8(1x4x4x256) (144)      
                                                                       S: conv2d_36_scratch0                                           
                                                                       W: conv2d_36_weights                 int8(256x1x1x256) (151)    
                                                                       W: conv2d_36_bias                    int32(256) (148)           
                                                                       O: conv2d_36_output                  int8(1x4x4x256) (149)      
------ ----------------------- ----- --------------- --------- ------- ------------------------------------ -------------------------- 
45     conv2d_37_pad_before    37    Pad             0         0       I: conv2d_36_output                  int8(1x4x4x256) (149)      
                                                                       O: conv2d_37_pad_before_output       int8(1x6x6x256) (154)      
------ ----------------------- ----- --------------- --------- ------- ------------------------------------ -------------------------- 
46     conv2d_37               37    Conv2D          37120     3328    I: conv2d_37_pad_before_output       int8(1x6x6x256) (154)      
                                                                       S: conv2d_37_scratch0                                           
                                                                       W: conv2d_37_weights                 int8(1x3x3x256) (156)      
                                                                       W: conv2d_37_bias                    int32(256) (152)           
                                                                       O: conv2d_37_output                  int8(1x4x4x256) (153)      
------ ----------------------- ----- --------------- --------- ------- ------------------------------------ -------------------------- 
47     conv2d_38               38    Conv2D          1048832   66560   I: conv2d_37_output                  int8(1x4x4x256) (153)      
                                                                       S: conv2d_38_scratch0                                           
                                                                       W: conv2d_38_weights                 int8(256x1x1x256) (160)    
                                                                       W: conv2d_38_bias                    int32(256) (157)           
                                                                       O: conv2d_38_output                  int8(1x4x4x256) (158)      
------ ----------------------- ----- --------------- --------- ------- ------------------------------------ -------------------------- 
48     conv2d_40_pad_before    40    Pad             0         0       I: conv2d_38_output                  int8(1x4x4x256) (158)      
                                                                       O: conv2d_40_pad_before_output       int8(1x6x6x256) (171)      
------ ----------------------- ----- --------------- --------- ------- ------------------------------------ -------------------------- 
49     conv2d_40               40    Conv2D          9472      3328    I: conv2d_40_pad_before_output       int8(1x6x6x256) (171)      
                                                                       S: conv2d_40_scratch0                                           
                                                                       W: conv2d_40_weights                 int8(1x3x3x256) (173)      
                                                                       W: conv2d_40_bias                    int32(256) (169)           
                                                                       O: conv2d_40_output                  int8(1x2x2x256) (170)      
------ ----------------------- ----- --------------- --------- ------- ------------------------------------ -------------------------- 
50     conv2d_41               41    Conv2D          262400    66560   I: conv2d_40_output                  int8(1x2x2x256) (170)      
                                                                       S: conv2d_41_scratch0                                           
                                                                       W: conv2d_41_weights                 int8(256x1x1x256) (177)    
                                                                       W: conv2d_41_bias                    int32(256) (174)           
                                                                       O: conv2d_41_output                  int8(1x2x2x256) (175)      
------ ----------------------- ----- --------------- --------- ------- ------------------------------------ -------------------------- 
51     conv2d_42_pad_before    42    Pad             0         0       I: conv2d_41_output                  int8(1x2x2x256) (175)      
                                                                       O: conv2d_42_pad_before_output       int8(1x4x4x256) (180)      
------ ----------------------- ----- --------------- --------- ------- ------------------------------------ -------------------------- 
52     conv2d_42               42    Conv2D          9472      3328    I: conv2d_42_pad_before_output       int8(1x4x4x256) (180)      
                                                                       S: conv2d_42_scratch0                                           
                                                                       W: conv2d_42_weights                 int8(1x3x3x256) (182)      
                                                                       W: conv2d_42_bias                    int32(256) (178)           
                                                                       O: conv2d_42_output                  int8(1x2x2x256) (179)      
------ ----------------------- ----- --------------- --------- ------- ------------------------------------ -------------------------- 
53     conv2d_43               43    Conv2D          262400    66560   I: conv2d_42_output                  int8(1x2x2x256) (179)      
                                                                       S: conv2d_43_scratch0                                           
                                                                       W: conv2d_43_weights                 int8(256x1x1x256) (186)    
                                                                       W: conv2d_43_bias                    int32(256) (183)           
                                                                       O: conv2d_43_output                  int8(1x2x2x256) (184)      
------ ----------------------- ----- --------------- --------- ------- ------------------------------------ -------------------------- 
54     pool_45                 45    Pool            1024      0       I: conv2d_43_output                  int8(1x2x2x256) (184)      
                                                                       O: pool_45_output                    int8(1x1x1x256) (253)      
------ ----------------------- ----- --------------- --------- ------- ------------------------------------ -------------------------- 
55     conv2d_50               50    Conv2D          8224      8320    I: pool_45_output                    int8(1x1x1x256) (253)      
                                                                       S: conv2d_50_scratch0                                           
                                                                       W: conv2d_50_weights                 int8(32x1x1x256) (194)     
                                                                       W: conv2d_50_bias                    int32(32) (191)            
                                                                       O: conv2d_50_output                  int8(1x1x1x32) (192)       
------ ----------------------- ----- --------------- --------- ------- ------------------------------------ -------------------------- 
56     tile_67                 67    Tile            0         0       I: conv2d_50_output                  int8(1x1x1x32) (192)       
                                                                       O: tile_67_output                    int8(1x2x2x32) (259)       
------ ----------------------- ----- --------------- --------- ------- ------------------------------------ -------------------------- 
57     conv2d_56               56    Conv2D          660       720     I: conv2d_50_output                  int8(1x1x1x32) (192)       
                                                                       S: conv2d_56_scratch0                                           
                                                                       W: conv2d_56_weights                 int8(20x1x1x32) (202)      
                                                                       W: conv2d_56_bias                    int32(20) (199)            
                                                                       O: conv2d_56_output                  int8(1x1x1x20) (200)       
------ ----------------------- ----- --------------- --------- ------- ------------------------------------ -------------------------- 
58     conv2d_51               51    Conv2D          330       360     I: conv2d_50_output                  int8(1x1x1x32) (192)       
                                                                       S: conv2d_51_scratch0                                           
                                                                       W: conv2d_51_weights                 int8(10x1x1x32) (198)      
                                                                       W: conv2d_51_bias                    int32(10) (195)            
                                                                       O: conv2d_51_output                  int8(1x1x1x10) (196)       
------ ----------------------- ----- --------------- --------- ------- ------------------------------------ -------------------------- 
59     conv2d_44               44    Conv2D          32800     8320    I: conv2d_43_output                  int8(1x2x2x256) (184)      
                                                                       S: conv2d_44_scratch0                                           
                                                                       W: conv2d_44_weights                 int8(32x1x1x256) (190)     
                                                                       W: conv2d_44_bias                    int32(32) (187)            
                                                                       O: conv2d_44_output                  int8(1x2x2x32) (188)       
------ ----------------------- ----- --------------- --------- ------- ------------------------------------ -------------------------- 
60     eltwise_68              68    Eltwise/add     128       0       I: conv2d_44_output                  int8(1x2x2x32) (188)       
                                                                       I: tile_67_output                    int8(1x2x2x32) (188)       
                                                                       O: eltwise_68_output                 int8(1x2x2x32) (249)       
------ ----------------------- ----- --------------- --------- ------- ------------------------------------ -------------------------- 
61     conv2d_69_pad_before    69    Pad             0         0       I: eltwise_68_output                 int8(1x2x2x32) (249)       
                                                                       O: conv2d_69_pad_before_output       int8(1x4x4x32) (210)       
------ ----------------------- ----- --------------- --------- ------- ------------------------------------ -------------------------- 
62     conv2d_69               69    Conv2D          11530     2920    I: conv2d_69_pad_before_output       int8(1x4x4x32) (210)       
                                                                       S: conv2d_69_scratch0                                           
                                                                       W: conv2d_69_weights                 int8(10x3x3x32) (212)      
                                                                       W: conv2d_69_bias                    int32(10) (208)            
                                                                       O: conv2d_69_output                  int8(1x2x2x10) (209)       
------ ----------------------- ----- --------------- --------- ------- ------------------------------------ -------------------------- 
63     conv2d_74_pad_before    74    Pad             0         0       I: eltwise_68_output                 int8(1x2x2x32) (249)       
                                                                       O: conv2d_74_pad_before_output       int8(1x4x4x32) (219)       
------ ----------------------- ----- --------------- --------- ------- ------------------------------------ -------------------------- 
64     conv2d_74               74    Conv2D          23060     5840    I: conv2d_74_pad_before_output       int8(1x4x4x32) (219)       
                                                                       S: conv2d_74_scratch0                                           
                                                                       W: conv2d_74_weights                 int8(20x3x3x32) (221)      
                                                                       W: conv2d_74_bias                    int32(20) (217)            
                                                                       O: conv2d_74_output                  int8(1x2x2x20) (218)       
------ ----------------------- ----- --------------- --------- ------- ------------------------------------ -------------------------- 
65     resize_85               85    Resize          2048      0       I: eltwise_68_output                 int8(1x2x2x32) (249)       
                                                                       O: resize_85_output                  int8(1x4x4x32) (257)       
------ ----------------------- ----- --------------- --------- ------- ------------------------------------ -------------------------- 
66     conv2d_39               39    Conv2D          131104    8320    I: conv2d_38_output                  int8(1x4x4x256) (158)      
                                                                       S: conv2d_39_scratch0                                           
                                                                       W: conv2d_39_weights                 int8(32x1x1x256) (164)     
                                                                       W: conv2d_39_bias                    int32(32) (161)            
                                                                       O: conv2d_39_output                  int8(1x4x4x32) (162)       
------ ----------------------- ----- --------------- --------- ------- ------------------------------------ -------------------------- 
67     eltwise_86              86    Eltwise/add     512       0       I: conv2d_39_output                  int8(1x4x4x32) (162)       
                                                                       I: resize_85_output                  int8(1x4x4x32) (162)       
                                                                       O: eltwise_86_output                 int8(1x4x4x32) (250)       
------ ----------------------- ----- --------------- --------- ------- ------------------------------------ -------------------------- 
68     conv2d_87_pad_before    87    Pad             0         0       I: eltwise_86_output                 int8(1x4x4x32) (250)       
                                                                       O: conv2d_87_pad_before_output       int8(1x6x6x32) (229)       
------ ----------------------- ----- --------------- --------- ------- ------------------------------------ -------------------------- 
69     conv2d_87               87    Conv2D          46090     2920    I: conv2d_87_pad_before_output       int8(1x6x6x32) (229)       
                                                                       S: conv2d_87_scratch0                                           
                                                                       W: conv2d_87_weights                 int8(10x3x3x32) (231)      
                                                                       W: conv2d_87_bias                    int32(10) (227)            
                                                                       O: conv2d_87_output                  int8(1x4x4x10) (228)       
------ ----------------------- ----- --------------- --------- ------- ------------------------------------ -------------------------- 
70     conv2d_92_pad_before    92    Pad             0         0       I: eltwise_86_output                 int8(1x4x4x32) (250)       
                                                                       O: conv2d_92_pad_before_output       int8(1x6x6x32) (238)       
------ ----------------------- ----- --------------- --------- ------- ------------------------------------ -------------------------- 
71     conv2d_92               92    Conv2D          92180     5840    I: conv2d_92_pad_before_output       int8(1x6x6x32) (238)       
                                                                       S: conv2d_92_scratch0                                           
                                                                       W: conv2d_92_weights                 int8(20x3x3x32) (240)      
                                                                       W: conv2d_92_bias                    int32(20) (236)            
                                                                       O: conv2d_92_output                  int8(1x4x4x20) (237)       
------ ----------------------- ----- --------------- --------- ------- ------------------------------------ -------------------------- 
72     resize_103              103   Resize          8192      0       I: eltwise_86_output                 int8(1x4x4x32) (250)       
                                                                       O: resize_103_output                 int8(1x8x8x32) (254)       
------ ----------------------- ----- --------------- --------- ------- ------------------------------------ -------------------------- 
73     conv2d_34               34    Conv2D          524320    8320    I: conv2d_33_output                  int8(1x8x8x256) (136)      
                                                                       S: conv2d_34_scratch0                                           
                                                                       W: conv2d_34_weights                 int8(32x1x1x256) (142)     
                                                                       W: conv2d_34_bias                    int32(32) (139)            
                                                                       O: conv2d_34_output                  int8(1x8x8x32) (140)       
------ ----------------------- ----- --------------- --------- ------- ------------------------------------ -------------------------- 
74     eltwise_104             104   Eltwise/add     2048      0       I: conv2d_34_output                  int8(1x8x8x32) (140)       
                                                                       I: resize_103_output                 int8(1x8x8x32) (140)       
                                                                       O: eltwise_104_output                int8(1x8x8x32) (246)       
------ ----------------------- ----- --------------- --------- ------- ------------------------------------ -------------------------- 
75     conv2d_105_pad_before   105   Pad             0         0       I: eltwise_104_output                int8(1x8x8x32) (246)       
                                                                       O: conv2d_105_pad_before_output      int8(1x10x10x32) (4)       
------ ----------------------- ----- --------------- --------- ------- ------------------------------------ -------------------------- 
76     conv2d_105              105   Conv2D          184330    2920    I: conv2d_105_pad_before_output      int8(1x10x10x32) (4)       
                                                                       S: conv2d_105_scratch0                                          
                                                                       W: conv2d_105_weights                int8(10x3x3x32) (6)        
                                                                       W: conv2d_105_bias                   int32(10) (2)              
                                                                       O: conv2d_105_output                 int8(1x8x8x10) (3)         
------ ----------------------- ----- --------------- --------- ------- ------------------------------------ -------------------------- 
77     conv2d_110_pad_before   110   Pad             0         0       I: eltwise_104_output                int8(1x8x8x32) (246)       
                                                                       O: conv2d_110_pad_before_output      int8(1x10x10x32) (14)      
------ ----------------------- ----- --------------- --------- ------- ------------------------------------ -------------------------- 
78     conv2d_110              110   Conv2D          368660    5840    I: conv2d_110_pad_before_output      int8(1x10x10x32) (14)      
                                                                       S: conv2d_110_scratch0                                          
                                                                       W: conv2d_110_weights                int8(20x3x3x32) (16)       
                                                                       W: conv2d_110_bias                   int32(20) (12)             
                                                                       O: conv2d_110_output                 int8(1x8x8x20) (13)        
------ ----------------------- ----- --------------- --------- ------- ------------------------------------ -------------------------- 
79     resize_121              121   Resize          32768     0       I: eltwise_104_output                int8(1x8x8x32) (246)       
                                                                       O: resize_121_output                 int8(1x16x16x32) (255)     
------ ----------------------- ----- --------------- --------- ------- ------------------------------------ -------------------------- 
80     conv2d_28               28    Conv2D          1048608   4224    I: conv2d_27_output                  int8(1x16x16x128) (109)    
                                                                       S: conv2d_28_scratch0                                           
                                                                       W: conv2d_28_weights                 int8(32x1x1x128) (115)     
                                                                       W: conv2d_28_bias                    int32(32) (112)            
                                                                       O: conv2d_28_output                  int8(1x16x16x32) (113)     
------ ----------------------- ----- --------------- --------- ------- ------------------------------------ -------------------------- 
81     eltwise_122             122   Eltwise/add     8192      0       I: conv2d_28_output                  int8(1x16x16x32) (113)     
                                                                       I: resize_121_output                 int8(1x16x16x32) (113)     
                                                                       O: eltwise_122_output                int8(1x16x16x32) (247)     
------ ----------------------- ----- --------------- --------- ------- ------------------------------------ -------------------------- 
82     conv2d_123_pad_before   123   Pad             0         0       I: eltwise_122_output                int8(1x16x16x32) (247)     
                                                                       O: conv2d_123_pad_before_output      int8(1x18x18x32) (23)      
------ ----------------------- ----- --------------- --------- ------- ------------------------------------ -------------------------- 
83     conv2d_123              123   Conv2D          737290    2920    I: conv2d_123_pad_before_output      int8(1x18x18x32) (23)      
                                                                       S: conv2d_123_scratch0                                          
                                                                       W: conv2d_123_weights                int8(10x3x3x32) (25)       
                                                                       W: conv2d_123_bias                   int32(10) (21)             
                                                                       O: conv2d_123_output                 int8(1x16x16x10) (22)      
------ ----------------------- ----- --------------- --------- ------- ------------------------------------ -------------------------- 
84     conv2d_128_pad_before   128   Pad             0         0       I: eltwise_122_output                int8(1x16x16x32) (247)     
                                                                       O: conv2d_128_pad_before_output      int8(1x18x18x32) (28)      
------ ----------------------- ----- --------------- --------- ------- ------------------------------------ -------------------------- 
85     conv2d_128              128   Conv2D          1474580   5840    I: conv2d_128_pad_before_output      int8(1x18x18x32) (28)      
                                                                       S: conv2d_128_scratch0                                          
                                                                       W: conv2d_128_weights                int8(20x3x3x32) (30)       
                                                                       W: conv2d_128_bias                   int32(20) (26)             
                                                                       O: conv2d_128_output                 int8(1x16x16x20) (27)      
------ ----------------------- ----- --------------- --------- ------- ------------------------------------ -------------------------- 
86     resize_139              139   Resize          131072    0       I: eltwise_122_output                int8(1x16x16x32) (247)     
                                                                       O: resize_139_output                 int8(1x32x32x32) (256)     
------ ----------------------- ----- --------------- --------- ------- ------------------------------------ -------------------------- 
87     conv2d_14               14    Conv2D          2097184   2176    I: conv2d_13_output                  int8(1x32x32x64) (37)      
                                                                       S: conv2d_14_scratch0                                           
                                                                       W: conv2d_14_weights                 int8(32x1x1x64) (53)       
                                                                       W: conv2d_14_bias                    int32(32) (50)             
                                                                       O: conv2d_14_output                  int8(1x32x32x32) (51)      
------ ----------------------- ----- --------------- --------- ------- ------------------------------------ -------------------------- 
88     eltwise_140             140   Eltwise/add     32768     0       I: conv2d_14_output                  int8(1x32x32x32) (51)      
                                                                       I: resize_139_output                 int8(1x32x32x32) (51)      
                                                                       O: eltwise_140_output                int8(1x32x32x32) (248)     
------ ----------------------- ----- --------------- --------- ------- ------------------------------------ -------------------------- 
89     conv2d_141_pad_before   141   Pad             0         0       I: eltwise_140_output                int8(1x32x32x32) (248)     
                                                                       O: conv2d_141_pad_before_output      int8(1x34x34x32) (42)      
------ ----------------------- ----- --------------- --------- ------- ------------------------------------ -------------------------- 
90     conv2d_141              141   Conv2D          2949130   2920    I: conv2d_141_pad_before_output      int8(1x34x34x32) (42)      
                                                                       S: conv2d_141_scratch0                                          
                                                                       W: conv2d_141_weights                int8(10x3x3x32) (44)       
                                                                       W: conv2d_141_bias                   int32(10) (40)             
                                                                       O: conv2d_141_output                 int8(1x32x32x10) (41)      
------ ----------------------- ----- --------------- --------- ------- ------------------------------------ -------------------------- 
91     concat_146              146   Concat          0         0       I: conv2d_141_output                 int8(1x32x32x10) (41)      
                                                                       I: conv2d_123_output                 int8(1x32x32x10) (41)      
                                                                       I: conv2d_105_output                 int8(1x32x32x10) (41)      
                                                                       I: conv2d_87_output                  int8(1x32x32x10) (41)      
                                                                       I: conv2d_69_output                  int8(1x32x32x10) (41)      
                                                                       I: conv2d_51_output                  int8(1x32x32x10) (41)      
                                                                       O: concat_146_output                 int8(1x6825x2) (0)         
------ ----------------------- ----- --------------- --------- ------- ------------------------------------ -------------------------- 
92     nl_147                  147   Nonlinearity    204750    0       I: concat_146_output                 int8(1x6825x2) (0)         
                                                                       S: nl_147_scratch0                                              
                                                                       O: nl_147_output                     int8(1x6825x2) (251)       
------ ----------------------- ----- --------------- --------- ------- ------------------------------------ -------------------------- 
93     conversion_148          148   Conversion      27300     0       I: nl_147_output                     int8(1x6825x2) (251)       
                                                                       O: conversion_148_output             f32(1x6825x2) (242)        
------ ----------------------- ----- --------------- --------- ------- ------------------------------------ -------------------------- 
94     conv2d_149_pad_before   149   Pad             0         0       I: eltwise_140_output                int8(1x32x32x32) (248)     
                                                                       O: conv2d_149_pad_before_output      int8(1x34x34x32) (47)      
------ ----------------------- ----- --------------- --------- ------- ------------------------------------ -------------------------- 
95     conv2d_149              149   Conv2D          5898260   5840    I: conv2d_149_pad_before_output      int8(1x34x34x32) (47)      
                                                                       S: conv2d_149_scratch0                                          
                                                                       W: conv2d_149_weights                int8(20x3x3x32) (49)       
                                                                       W: conv2d_149_bias                   int32(20) (45)             
                                                                       O: conv2d_149_output                 int8(1x32x32x20) (46)      
------ ----------------------- ----- --------------- --------- ------- ------------------------------------ -------------------------- 
96     concat_154              154   Concat          0         0       I: conv2d_149_output                 int8(1x32x32x20) (46)      
                                                                       I: conv2d_128_output                 int8(1x32x32x20) (46)      
                                                                       I: conv2d_110_output                 int8(1x32x32x20) (46)      
                                                                       I: conv2d_92_output                  int8(1x32x32x20) (46)      
                                                                       I: conv2d_74_output                  int8(1x32x32x20) (46)      
                                                                       I: conv2d_56_output                  int8(1x32x32x20) (46)      
                                                                       O: concat_154_output                 int8(1x6825x4) (1)         
------ ----------------------- ----- --------------- --------- ------- ------------------------------------ -------------------------- 
97     conversion_155          155   Conversion      54600     0       I: concat_154_output                 int8(1x6825x4) (1)         
                                                                       O: conversion_155_output             f32(1x6825x4) (243)        
------ ----------------------- ----- --------------- --------- ------- ------------------------------------ -------------------------- 



Number of operations per c-layer
------- ------ ----------------------------------------- ------------ -------------- 
c_id    m_id   name (type)                                        #op           type 
------- ------ ----------------------------------------- ------------ -------------- 
0       163    conversion_163_con..utput_copy (Concat)              0   smul_f32_f32 
1       0      conversion_0 (Conversion)                      393,216     smul_u8_s8 
2       1      conv2d_1 (Conv2D)                            3,538,952     smul_s8_s8 
3       2      conv2d_2_pad_before (Pad)                            0     smul_s8_s8 
4       2      conv2d_2 (Conv2D)                            1,179,656     smul_s8_s8 
5       3      conv2d_3 (Conv2D)                            2,097,168     smul_s8_s8 
6       4      conv2d_5_pad_before (Pad)                            0     smul_s8_s8 
7       5      conv2d_5 (Conv2D)                              589,840     smul_s8_s8 
8       6      conv2d_6 (Conv2D)                            2,097,184     smul_s8_s8 
9       7      conv2d_7_pad_before (Pad)                            0     smul_s8_s8 
10      7      conv2d_7 (Conv2D)                            1,179,680     smul_s8_s8 
11      8      conv2d_8 (Conv2D)                            4,194,336     smul_s8_s8 
12      9      conv2d_10_pad_before (Pad)                           0     smul_s8_s8 
13      10     conv2d_10 (Conv2D)                             294,944     smul_s8_s8 
14      11     conv2d_11 (Conv2D)                           2,097,216     smul_s8_s8 
15      12     conv2d_12_pad_before (Pad)                           0     smul_s8_s8 
16      12     conv2d_12 (Conv2D)                             589,888     smul_s8_s8 
17      13     conv2d_13 (Conv2D)                           4,194,368     smul_s8_s8 
18      15     conv2d_16_pad_before (Pad)                           0     smul_s8_s8 
19      16     conv2d_16 (Conv2D)                             147,520     smul_s8_s8 
20      17     conv2d_17 (Conv2D)                           2,097,280     smul_s8_s8 
21      18     conv2d_18_pad_before (Pad)                           0     smul_s8_s8 
22      18     conv2d_18 (Conv2D)                             295,040     smul_s8_s8 
23      19     conv2d_19 (Conv2D)                           4,194,432     smul_s8_s8 
24      20     conv2d_20_pad_before (Pad)                           0     smul_s8_s8 
25      20     conv2d_20 (Conv2D)                             295,040     smul_s8_s8 
26      21     conv2d_21 (Conv2D)                           4,194,432     smul_s8_s8 
27      22     conv2d_22_pad_before (Pad)                           0     smul_s8_s8 
28      22     conv2d_22 (Conv2D)                             295,040     smul_s8_s8 
29      23     conv2d_23 (Conv2D)                           4,194,432     smul_s8_s8 
30      24     conv2d_24_pad_before (Pad)                           0     smul_s8_s8 
31      24     conv2d_24 (Conv2D)                             295,040     smul_s8_s8 
32      25     conv2d_25 (Conv2D)                           4,194,432     smul_s8_s8 
33      26     conv2d_26_pad_before (Pad)                           0     smul_s8_s8 
34      26     conv2d_26 (Conv2D)                             295,040     smul_s8_s8 
35      27     conv2d_27 (Conv2D)                           4,194,432     smul_s8_s8 
36      29     conv2d_30_pad_before (Pad)                           0     smul_s8_s8 
37      30     conv2d_30 (Conv2D)                              73,856     smul_s8_s8 
38      31     conv2d_31 (Conv2D)                           2,097,408     smul_s8_s8 
39      32     conv2d_32_pad_before (Pad)                           0     smul_s8_s8 
40      32     conv2d_32 (Conv2D)                             147,712     smul_s8_s8 
41      33     conv2d_33 (Conv2D)                           4,194,560     smul_s8_s8 
42      35     conv2d_35_pad_before (Pad)                           0     smul_s8_s8 
43      35     conv2d_35 (Conv2D)                              37,120     smul_s8_s8 
44      36     conv2d_36 (Conv2D)                           1,048,832     smul_s8_s8 
45      37     conv2d_37_pad_before (Pad)                           0     smul_s8_s8 
46      37     conv2d_37 (Conv2D)                              37,120     smul_s8_s8 
47      38     conv2d_38 (Conv2D)                           1,048,832     smul_s8_s8 
48      40     conv2d_40_pad_before (Pad)                           0     smul_s8_s8 
49      40     conv2d_40 (Conv2D)                               9,472     smul_s8_s8 
50      41     conv2d_41 (Conv2D)                             262,400     smul_s8_s8 
51      42     conv2d_42_pad_before (Pad)                           0     smul_s8_s8 
52      42     conv2d_42 (Conv2D)                               9,472     smul_s8_s8 
53      43     conv2d_43 (Conv2D)                             262,400     smul_s8_s8 
54      45     pool_45 (Pool)                                   1,024     smul_s8_s8 
55      50     conv2d_50 (Conv2D)                               8,224     smul_s8_s8 
56      67     tile_67 (Tile)                                       0     smul_s8_s8 
57      56     conv2d_56 (Conv2D)                                 660     smul_s8_s8 
58      51     conv2d_51 (Conv2D)                                 330     smul_s8_s8 
59      44     conv2d_44 (Conv2D)                              32,800     smul_s8_s8 
60      68     eltwise_68 (Eltwise/add)                           128       op_s8_s8 
61      69     conv2d_69_pad_before (Pad)                           0     smul_s8_s8 
62      69     conv2d_69 (Conv2D)                              11,530     smul_s8_s8 
63      74     conv2d_74_pad_before (Pad)                           0     smul_s8_s8 
64      74     conv2d_74 (Conv2D)                              23,060     smul_s8_s8 
65      85     resize_85 (Resize)                               2,048     smul_s8_s8 
66      39     conv2d_39 (Conv2D)                             131,104     smul_s8_s8 
67      86     eltwise_86 (Eltwise/add)                           512       op_s8_s8 
68      87     conv2d_87_pad_before (Pad)                           0     smul_s8_s8 
69      87     conv2d_87 (Conv2D)                              46,090     smul_s8_s8 
70      92     conv2d_92_pad_before (Pad)                           0     smul_s8_s8 
71      92     conv2d_92 (Conv2D)                              92,180     smul_s8_s8 
72      103    resize_103 (Resize)                              8,192     smul_s8_s8 
73      34     conv2d_34 (Conv2D)                             524,320     smul_s8_s8 
74      104    eltwise_104 (Eltwise/add)                        2,048       op_s8_s8 
75      105    conv2d_105_pad_before (Pad)                          0     smul_s8_s8 
76      105    conv2d_105 (Conv2D)                            184,330     smul_s8_s8 
77      110    conv2d_110_pad_before (Pad)                          0     smul_s8_s8 
78      110    conv2d_110 (Conv2D)                            368,660     smul_s8_s8 
79      121    resize_121 (Resize)                             32,768     smul_s8_s8 
80      28     conv2d_28 (Conv2D)                           1,048,608     smul_s8_s8 
81      122    eltwise_122 (Eltwise/add)                        8,192       op_s8_s8 
82      123    conv2d_123_pad_before (Pad)                          0     smul_s8_s8 
83      123    conv2d_123 (Conv2D)                            737,290     smul_s8_s8 
84      128    conv2d_128_pad_before (Pad)                          0     smul_s8_s8 
85      128    conv2d_128 (Conv2D)                          1,474,580     smul_s8_s8 
86      139    resize_139 (Resize)                            131,072     smul_s8_s8 
87      14     conv2d_14 (Conv2D)                           2,097,184     smul_s8_s8 
88      140    eltwise_140 (Eltwise/add)                       32,768       op_s8_s8 
89      141    conv2d_141_pad_before (Pad)                          0     smul_s8_s8 
90      141    conv2d_141 (Conv2D)                          2,949,130     smul_s8_s8 
91      146    concat_146 (Concat)                                  0     smul_s8_s8 
92      147    nl_147 (Nonlinearity)                          204,750       op_s8_s8 
93      148    conversion_148 (Conversion)                     27,300    smul_s8_f32 
94      149    conv2d_149_pad_before (Pad)                          0     smul_s8_s8 
95      149    conv2d_149 (Conv2D)                          5,898,260     smul_s8_s8 
96      154    concat_154 (Concat)                                  0     smul_s8_s8 
97      155    conversion_155 (Conversion)                     54,600    smul_s8_f32 
------- ------ ----------------------------------------- ------------ -------------- 
total                                                      72,501,534 

Number of operation types
---------------- ------------ ----------- 
operation type              #           % 
---------------- ------------ ----------- 
smul_f32_f32                0        0.0% 
smul_u8_s8            393,216        0.5% 
smul_s8_s8         71,778,020       99.0% 
op_s8_s8              248,398        0.3% 
smul_s8_f32            81,900        0.1% 

Complexity report (model)
------ -------------------------- ------------------------- ------------------------- ---------- 
m_id   name                       c_macc                    c_rom                     c_id       
------ -------------------------- ------------------------- ------------------------- ---------- 
0      serving_default_input_10   |                  0.5%   |                  0.0%   [1]        
1      conv2d_1                   |||||||||          4.9%   |                  0.0%   [2]        
2      conv2d_2                   ||||               1.6%   |                  0.0%   [3, 4]     
3      conv2d_3                   ||||||             2.9%   |                  0.0%   [5]        
4      pad_4                      |                  0.0%   |                  0.0%   [6]        
5      conv2d_5                   ||                 0.8%   |                  0.0%   [7]        
6      conv2d_6                   ||||||             2.9%   |                  0.1%   [8]        
7      conv2d_7                   ||||               1.6%   |                  0.1%   [9, 10]    
8      conv2d_8                   |||||||||||        5.8%   |                  0.2%   [11]       
9      pad_9                      |                  0.0%   |                  0.0%   [12]       
10     conv2d_10                  |                  0.4%   |                  0.1%   [13]       
11     conv2d_11                  ||||||             2.9%   |                  0.3%   [14]       
12     conv2d_12                  ||                 0.8%   |                  0.1%   [15, 16]   
13     conv2d_13                  |||||||||||        5.8%   |                  0.6%   [17]       
14     conv2d_14                  ||||||             2.9%   |                  0.3%   [87]       
15     pad_15                     |                  0.0%   |                  0.0%   [18]       
16     conv2d_16                  |                  0.2%   |                  0.1%   [19]       
17     conv2d_17                  ||||||             2.9%   ||                 1.3%   [20]       
18     conv2d_18                  |                  0.4%   |                  0.2%   [21, 22]   
19     conv2d_19                  |||||||||||        5.8%   |||                2.4%   [23]       
20     conv2d_20                  |                  0.4%   |                  0.2%   [24, 25]   
21     conv2d_21                  |||||||||||        5.8%   |||                2.4%   [26]       
22     conv2d_22                  |                  0.4%   |                  0.2%   [27, 28]   
23     conv2d_23                  |||||||||||        5.8%   |||                2.4%   [29]       
24     conv2d_24                  |                  0.4%   |                  0.2%   [30, 31]   
25     conv2d_25                  |||||||||||        5.8%   |||                2.4%   [32]       
26     conv2d_26                  |                  0.4%   |                  0.2%   [33, 34]   
27     conv2d_27                  |||||||||||        5.8%   |||                2.4%   [35]       
28     conv2d_28                  |||                1.4%   |                  0.6%   [80]       
29     pad_29                     |                  0.0%   |                  0.0%   [36]       
30     conv2d_30                  |                  0.1%   |                  0.2%   [37]       
31     conv2d_31                  ||||||             2.9%   |||||              4.9%   [38]       
32     conv2d_32                  |                  0.2%   |                  0.5%   [39, 40]   
33     conv2d_33                  |||||||||||        5.8%   ||||||||||         9.6%   [41]       
34     conv2d_34                  ||                 0.7%   ||                 1.2%   [73]       
35     conv2d_35                  |                  0.1%   |                  0.5%   [42, 43]   
36     conv2d_36                  |||                1.4%   ||||||||||         9.6%   [44]       
37     conv2d_37                  |                  0.1%   |                  0.5%   [45, 46]   
38     conv2d_38                  |||                1.4%   ||||||||||         9.6%   [47]       
39     conv2d_39                  |                  0.2%   ||                 1.2%   [66]       
40     conv2d_40                  |                  0.0%   |                  0.5%   [48, 49]   
41     conv2d_41                  |                  0.4%   ||||||||||         9.6%   [50]       
42     conv2d_42                  |                  0.0%   |                  0.5%   [51, 52]   
43     conv2d_43                  |                  0.4%   ||||||||||         9.6%   [53]       
44     conv2d_44                  |                  0.0%   ||                 1.2%   [59]       
45     pool_45                    |                  0.0%   |                  0.0%   [54]       
50     conv2d_50                  |                  0.0%   ||                 1.2%   [55]       
51     conv2d_51                  |                  0.0%   |                  0.1%   [58]       
56     conv2d_56                  |                  0.0%   |                  0.1%   [57]       
67     tile_67                    |                  0.0%   |                  0.0%   [56]       
68     eltwise_68                 |                  0.0%   |                  0.0%   [60]       
69     conv2d_69                  |                  0.0%   |                  0.4%   [61, 62]   
74     conv2d_74                  |                  0.0%   |                  0.8%   [63, 64]   
85     resize_85                  |                  0.0%   |                  0.0%   [65]       
86     eltwise_86                 |                  0.0%   |                  0.0%   [67]       
87     conv2d_87                  |                  0.1%   |                  0.4%   [68, 69]   
92     conv2d_92                  |                  0.1%   |                  0.8%   [70, 71]   
103    resize_103                 |                  0.0%   |                  0.0%   [72]       
104    eltwise_104                |                  0.0%   |                  0.0%   [74]       
105    conv2d_105                 |                  0.3%   |                  0.4%   [75, 76]   
110    conv2d_110                 |                  0.5%   |                  0.8%   [77, 78]   
121    resize_121                 |                  0.0%   |                  0.0%   [79]       
122    eltwise_122                |                  0.0%   |                  0.0%   [81]       
123    conv2d_123                 ||                 1.0%   |                  0.4%   [82, 83]   
128    conv2d_128                 ||||               2.0%   |                  0.8%   [84, 85]   
139    resize_139                 |                  0.2%   |                  0.0%   [86]       
140    eltwise_140                |                  0.0%   |                  0.0%   [88]       
141    conv2d_141                 ||||||||           4.1%   |                  0.4%   [89, 90]   
146    concat_146                 |                  0.0%   |                  0.0%   [91]       
147    nl_147                     |                  0.3%   |                  0.0%   [92]       
148    conversion_148             |                  0.0%   |                  0.0%   [93]       
149    conv2d_149                 ||||||||||||||||   8.1%   |                  0.8%   [94, 95]   
154    concat_154                 |                  0.0%   |                  0.0%   [96]       
155    conversion_155             |                  0.1%   |                  0.0%   [97]       
163    conversion_163_const       |                  0.0%   ||||||||||||||||  15.8%   [0]        
------ -------------------------- ------------------------- ------------------------- ---------- 
macc=72,501,534 weights=691,856 act=596,680 ram_io=0
 
 Requested memory size by section - "stm32h7" target
 ------------------------------ -------- --------- -------- --------- 
 module                             text    rodata     data       bss 
 ------------------------------ -------- --------- -------- --------- 
 NetworkRuntime1000_CM7_GCC.a     36,764         0        0         0 
 network.o                         4,714    30,069   33,004     1,428 
 network_data.o                       48        16      176         0 
 lib (toolchain)*                    892       624        0         0 
 ------------------------------ -------- --------- -------- --------- 
 RT total**                       42,418    30,709   33,180     1,428 
 ------------------------------ -------- --------- -------- --------- 
 weights                               0   691,856        0         0 
 activations                           0         0        0   596,680 
 io                                    0         0        0         0 
 ------------------------------ -------- --------- -------- --------- 
 TOTAL                            42,418   722,565   33,180   598,108 
 ------------------------------ -------- --------- -------- --------- 
 *  toolchain objects (libm/libgcc*)
 ** RT AI runtime objects (kernels+infrastructure)
  
  Summary - "stm32h7" target
  --------------------------------------------------
               FLASH (ro)      %*   RAM (rw)      % 
  --------------------------------------------------
  RT total        106,307   13.3%     34,608   5.5% 
  --------------------------------------------------
  TOTAL           798,163            631,288        
  --------------------------------------------------
  *  rt/total


Generated files (7)
---------------------------------------------------------------------------------------- 
/tmp/stm32ai_service/2870beeb-773e-4d2b-a21a-77c8b1b87c2f/output/network_data_params.h   
/tmp/stm32ai_service/2870beeb-773e-4d2b-a21a-77c8b1b87c2f/output/network_data_params.c   
/tmp/stm32ai_service/2870beeb-773e-4d2b-a21a-77c8b1b87c2f/output/network_data.h          
/tmp/stm32ai_service/2870beeb-773e-4d2b-a21a-77c8b1b87c2f/output/network_data.c          
/tmp/stm32ai_service/2870beeb-773e-4d2b-a21a-77c8b1b87c2f/output/network_config.h        
/tmp/stm32ai_service/2870beeb-773e-4d2b-a21a-77c8b1b87c2f/output/network.h               
/tmp/stm32ai_service/2870beeb-773e-4d2b-a21a-77c8b1b87c2f/output/network.c               
